data/model_fda_salami.npy (npy, 100432 bytes, 1 tensors)

array f8 [112, 112]
000000 70 b3 d2 45 93 7d ab 3f a3 ca b0 1a 26 b8 70 3f
       0.053692438386270136 0.004081868023649324
000010 1c 95 04 21 d7 4f af 3f a2 03 39 f6 30 ac 85 3f
       0.061156008511071586 0.010582335008736458
000020 09 22 71 c9 07 da 84 3f 19 be ce 2d e8 8f 94 3f
       0.010181485018748953 0.020080211444733907
000030 5d 2e 8e 05 fd d3 85 3f 83 b4 4b d3 fd a8 29 3f
       0.010658241970097732 0.00019577120260497538
000040 f4 ff 65 90 76 6c 46 3f 40 8d be b7 a2 b4 88 bf
       0.0006843165327126131 -0.012063285095627152
000050 3e 68 dc 15 c4 c2 82 bf 45 a5 ef d9 c8 bd 90 bf
       -0.009160549084800459 -0.01634897070099341
000060 d2 b2 26 3c d0 b1 81 bf d5 bf 9b 5b 6b 8c 75 bf
       -0.008639933429401312 -0.005260867468436421
000070 a7 cf 21 9c b9 1c 96 bf 23 ab 13 38 48 1d 91 bf
       -0.021593952326341228 -0.016713264868410193
000080 8a 38 46 c0 fd b2 6a 3f 8d 79 af c2 83 b5 93 3f
       0.0032591777873625704 0.019247111089379088
000090 ef 80 4f fb e0 be 82 bf 5a 2d 21 c2 a7 86 75 bf
       -0.009153134984388049 -0.005255370431835738
0000a0 87 82 a2 de 8d dd 73 3f 29 73 3e 0d 66 ac 8d bf
       0.004849962404620662 -0.014488980559514157
0000b0 85 60 8b ac 7f d9 83 3f 17 86 d5 d6 91 0d 51 bf
       0.009692189648760294 -0.0010408329211134598
0000c0 12 f6 91 45 2d 92 5a 3f 6e 0d ac a5 26 16 68 3f
       0.001621765337659457 0.002940249903419171
0000d0 39 9c 43 6e 51 49 7a 3f 7d 19 ad 14 1c 97 71 3f
       0.006417577828165704 0.004294500055783576
0000e0 67 bc 29 8e ed 00 8c 3f 63 a9 ba 16 5a 5e 70 3f
       0.013673644925090224 0.003996230992621671
0000f0 d7 d9 f3 14 6b 16 60 3f 9c ea d7 cc 4a 68 54 bf
       0.0019638148729612492 -0.001245568320313118
000100 d8 aa 87 a6 16 85 4a bf c1 93 8f c8 cc e2 57 bf
       -0.0008093224142247902 -0.0014578819120682903
000110 41 29 cc ea 4f 4e 59 bf a6 3b ae 44 2b 9f 53 bf
       -0.0015445499840916618 -0.0011976168195564157
000120 b1 72 59 cf ee 6c 59 bf ea 77 f1 dc ff 5b 51 bf
       -0.001551850521898473 -0.0010595320379915792
000130 2d ff fb 13 77 65 50 bf 10 1c dd 35 3e c8 58 bf
       -0.001000753676578324 -0.0015125854037749721
000140 47 20 ef 6a 7d 6c 59 bf 64 72 6b 87 7c 0b 57 bf
       -0.0015517449171387353 -0.0014065471747734199
000150 b8 87 61 3e f2 32 35 bf da 12 0f 3d 65 f2 52 bf
       -0.000323471204302202 -0.0011564243943535308
000160 63 f2 ca 01 a5 84 92 bf 37 84 b8 a0 bc 58 7a bf
       -0.01808412383501191 -0.006432282283214844
000170 0e dc 93 ca 2a dc 31 bf c6 ed f7 c9 22 5c 77 bf
       -0.00027252239904335194 -0.005703102011007604
000180 19 f6 47 1b d5 b9 70 bf 8d c8 1e 0c 98 56 08 bf
       -0.004083473632360967 -4.64215422789775e-05
000190 b2 91 c6 0a 6f b4 63 bf f7 d3 f4 27 90 29 55 bf
       -0.002405373457991377 -0.0012916476988042971
0001a0 d0 b4 2a 20 dd 80 6e bf 52 7b fe 17 7c fe 6e bf
       -0.0037235564098724097 -0.003783457155761929
0001b0 04 2a 12 0a af 96 5b bf 34 58 ff 53 dc 4b 57 bf
       -0.0016838750237037079 -0.0014218951837299378
0001c0 cc 8a 3e bb ab 05 62 bf 58 db 8a cc 4e c1 62 bf
       -0.0021999696854931635 -0.0022894419710967444
0001d0 54 5e d3 fe 06 0d 67 bf 72 41 cc e3 51 ce 63 bf
       -0.0028138291005282232 -0.0024177169237946045
0001e0 32 bb 69 e2 fc 6a 65 bf b5 b5 22 d4 c1 c3 65 bf
       -0.0026144923352186206 -0.002656820842352937
0001f0 c1 57 8c c8 af c3 62 bf d0 ac 21 b8 a7 3a 52 bf
       -0.0022905762929310296 -0.0011126172908245031
000200 ba 68 ec 8b 66 78 56 bf 83 40 4b 40 51 f2 5f bf
       -0.0013714791709334277 -0.0019498628109211609
000210 34 12 71 cf 13 b0 62 bf cc 27 40 2f ac 58 65 bf
       -0.0022812258644384856 -0.0026057589511809583
000220 12 14 eb 27 29 2b 62 bf 1e f1 07 be 7d b6 59 bf
       -0.0022178462816975298 -0.0015693881942971453
000230 f1 f9 b2 0d ef e6 58 bf 27 51 ab d4 c0 07 60 bf
       -0.0015199026591258236 -0.0019568220353482105
000240 81 00 f5 f0 a1 11 5f bf e2 ce 0a 01 f0 a6 63 bf
       -0.0018962937791258407 -0.0023989379481806775
000250 a2 19 38 38 56 5f 61 bf 0b 70 4d 78 1b 55 64 bf
       -0.0021206554390602187 -0.0024819885751821195
000260 0d 3b f9 cb 6c 01 03 bf 08 5b 79 d1 e3 3d 80 bf
       -3.625024100683246e-05 -0.007930545644894163
000270 67 ef 73 1b d3 e8 64 3f f6 27 70 90 b6 73 4b bf
       0.002552425688575544 -0.000837768690759021
000280 a1 d3 00 8a 74 eb 54 bf dc bf 1d 82 2b 81 66 bf
       -0.0012768400265603457 -0.00274713990886964
000290 90 ee f0 70 31 c6 5e bf 72 fa 0d 32 86 1d 54 bf
       -0.00187830761184574 -0.0012277422431165278
0002a0 93 c8 dd 85 e4 29 57 bf 23 28 a4 8f d6 3b 6f bf
       -0.0014137965840430907 -0.003812712731023475
0002b0 4d 84 4c c6 87 04 70 bf 59 26 cf 86 0f ed 2e bf
       -0.003910570497084609 -0.00023594679387732817
0002c0 6b 63 c4 d7 22 be 51 bf 85 32 83 40 d1 61 46 bf
       -0.0010829296362031237 -0.0006830474603930081
0002d0 4d 7d 09 69 68 52 66 bf 69 1b 26 ea ff d5 64 bf
       -0.0027248420013134323 -0.0025434492428674693
0002e0 3d d2 4d 64 37 62 62 bf 03 a3 e3 b4 6a 63 60 bf
       -0.002244098841794688 -0.0020005306351901244
0002f0 a1 24 33 33 e2 5e 52 bf 5a 21 10 50 07 d6 3f 3f
       -0.001121254824101116 0.0004857795575508216
000300 5e 7a 3e 52 23 38 50 bf db e4 a9 a4 a7 ba 60 bf
       -0.000989946835921927 -0.0020421289712514285
000310 13 56 b1 8e 1a 41 4a bf 65 1b 8b 70 14 e1 57 bf
       -0.0008012180018208158 -0.0014574718099297998
000320 db c0 9e 8f c4 eb 62 bf 80 fd 08 f5 48 ba 64 bf
       -0.002309688480600964 -0.002530233854741659
000330 cf 4d cd 87 c7 c9 5d bf 7c d1 f8 f7 f4 ef 63 bf
       -0.001818127492886446 -0.0024337563079603313
000340 51 a6 52 33 ae 49 69 bf 85 df 84 0f 96 80 6c bf
       -0.0030868913987276776 -0.00347928341593823
000350 ea 7d 7c dd 21 60 63 bf d4 9a fb 63 67 e7 63 bf
       -0.0023651753835023286 -0.002429677900966135
000360 00 00 00 00 00 00 f0 3f 70 3e cd 4d 33 af 6d 3f
       1.0 0.0036235811261702763
000370 2f e6 f8 8f b2 61 ed bf 24 b8 f6 25 cf 63 6e 3f
       -0.9181759654958962 0.003709702097430616
000380 4e 1d 1a 7e a1 9e 94 3f 66 23 7b 9e 72 da 70 3f
       0.020136378595023978 0.004114577990272794
000390 e5 8f 17 0b 4c f2 81 3f e6 aa 8e fe 9e 46 98 3f
       0.008762926186086826 0.0237068980092471
0003a0 88 5f fb 05 c8 53 7c bf cc 84 22 95 cb a4 82 3f
       -0.006915837613369898 0.00910338448403749
0003b0 bd 2c 80 d9 23 89 63 3f 34 13 f5 ad 43 6d 47 bf
       0.0023847294032797992 -0.0007149296251688143
0003c0 2b d5 5a 76 04 02 85 bf c2 5f b6 fa ab c2 77 bf
       -0.010257754194166488 -0.005800887865369421
0003d0 b3 c5 b2 c2 cd 81 84 bf 45 00 a4 df 31 07 84 bf
       -0.010013206009122344 -0.00977934802767789
0003e0 fb e3 f7 d0 d8 e7 72 bf 1b 9f 6e 11 58 ce 4c bf
       -0.004615637720683625 -0.000879090311049577
0003f0 40 0a ae 8a e4 af 5d bf 15 d4 67 46 66 d7 61 3f
       -0.0018119556286541189 0.0021779058035869083
000400 b2 d7 ce c3 00 51 63 bf 64 51 75 06 b0 7d 78 3f
       -0.002357961172005007 0.005979240034623554
000410 9f b9 fb 1e 7d bd 75 3f b0 e0 20 f3 c9 5c 6d 3f
       0.00530766368295446 0.003584284241721823
000420 c6 d8 c9 00 bc 9d 6b 3f 79 5b 2f ad 83 19 06 bf
       0.0033711120543627763 -4.2151766727441726e-05
000430 07 9e 5a 69 08 b3 61 3f 51 66 91 e0 dd 1d 88 3f
       0.002160564831530601 0.011775716224451534
000440 ab 94 51 24 34 09 6e 3f d0 de c9 a2 37 65 78 3f
       0.003666498031224726 0.005955903365808715
000450 5b 2e 87 8d ee ba 70 bf 4f 03 08 d1 c0 a2 7a bf
       -0.004084522101446798 -0.006502869786800882
000460 a1 60 c2 45 68 4f 61 3f 52 52 98 34 3e f6 6c 3f
       0.002113059670659182 0.0035353865575962562
000470 fb 5f 6c f7 7f 71 68 3f 96 ef 8e ce 68 fd 7e 3f
       0.0029838084550526368 0.007565888788061323
000480 97 19 86 88 8d a2 79 3f 77 da fc 33 5c 29 79 3f
       0.006258538116873067 0.006142959755200842
000490 63 ed 06 bc ff ce 7a 3f 20 ad 67 c8 72 19 7a 3f
       0.006545065844359629 0.00637192570728054
0004a0 14 d0 4b e6 4d 88 7a 3f 53 65 c8 f3 97 fd 79 3f
       0.006477646155634193 0.006345361293392432
0004b0 f3 25 e9 39 b9 5e 79 3f 9c 6a a4 bf 78 9b 7a 3f
       0.006193851032159514 0.0064959255926405855
0004c0 7b 54 2a 5f cb 13 7a 3f d9 4c 22 44 f9 f1 7a 3f
       0.006366533680780435 0.006578420349018199
0004d0 6f 89 99 81 46 0a 7a 3f b8 c6 10 38 b1 bb 79 3f
       0.006357455649409579 0.006282512914411668
0004e0 92 0b e3 f3 d7 9c 59 3f 8d 62 26 41 2c 1b 70 3f
       0.0015632733261987425 0.0039321640673725235
0004f0 e1 51 59 1c d5 60 7a 3f 98 6b 3b 42 52 e4 78 3f
       0.006440002883739444 0.006077119181749156
000500 29 ed 62 e9 02 65 77 3f 3d 07 c1 24 0a 19 7c 3f
       0.0057115663277571916 0.006859817145654476
000510 db ba f7 47 09 68 7b 3f 1c 2f 39 01 74 72 78 3f
       0.006691013578786732 0.005968526023547385
000520 b5 5c 17 b3 8a 42 77 3f 93 86 51 b5 85 2a 78 3f
       0.00567869357606481 0.005899927423429613
000530 73 b7 ac 1a 44 3f 7a 3f 58 47 06 83 2f 27 79 3f
       0.006407991439841487 0.006140885918641668
000540 6b 38 69 84 b7 d9 79 3f 83 34 97 40 52 10 79 3f
       0.006311146606618671 0.006119080827784565
000550 5c 70 20 b5 94 24 7a 3f 40 89 0e 45 e4 12 78 3f
       0.006382542504095392 0.005877391508791796
000560 68 11 0d d0 5b 36 78 3f 89 aa 26 49 f0 fd 77 3f
       0.0059112154420442944 0.00585740911121014
000570 c9 a4 e3 91 06 e2 77 3f 42 53 69 6a af de 79 3f
       0.005830789245217357 0.0063158847975344785
000580 dd a8 ca ec 52 53 7a 3f 89 d9 11 db 74 d4 77 3f
       0.006427120137838052 0.005817848651636822
000590 65 80 e9 ee 5d 8f 79 3f d5 5f 60 41 d0 fe 79 3f
       0.006240240980872701 0.006346524713102005
0005a0 38 4b 0b 05 e1 17 78 3f 62 e4 83 0f 04 e2 79 3f
       0.005882147772996053 0.006319061147444934
0005b0 e1 10 37 db 53 43 7a 3f 07 93 cf b9 3c 3f 79 3f
       0.006411864818293562 0.006163823328255053
0005c0 be 0f 9d 67 a6 82 78 3f 54 bb c2 af dc 6f 79 3f
       0.005983972567097538 0.006210195595641139
0005d0 5e 3d fa 5f cf 26 79 3f 1a 24 87 7d 46 87 78 3f
       0.006140527780771647 0.005988383629707017
0005e0 19 2c 73 b2 26 d4 75 3f a7 7e 8c 79 32 f7 6e 3f
       0.005329276237897162 0.0037799821697176053
0005f0 ad 40 c1 c6 e8 e6 81 3f 6b 53 7d 7f b7 e6 79 3f
       0.008741205754774073 0.00632354430111524
000600 5a 50 df 15 61 e2 77 3f 47 27 6c f3 cd 52 76 3f
       0.005831126441950907 0.005450062270719708
000610 4b eb a8 21 82 87 78 3f 81 c0 5b 4d 9c e7 78 3f
       0.005988605810268786 0.006080256038089372
000620 b1 f8 09 19 90 37 77 3f 34 c0 54 72 fb 47 77 3f
       0.005668223268570014 0.005683881963065619
000630 dd 7c aa 23 3e 94 7a 3f 1d 67 35 d4 7d f1 7c 3f
       0.006489031535834769 0.007066241759582839
000640 95 7c c9 22 27 49 7a 3f 13 73 65 8b 57 1c 78 3f
       0.006417420267637604 0.005886404009598295
000650 65 56 83 73 e2 ea 77 3f 68 9f 74 71 eb 12 7a 3f
       0.0058392377615824375 0.006365699481911104
000660 75 51 6b 30 fe 1e 78 3f c6 4b 73 d7 b8 ae 77 3f
       0.005888932157820261 0.005781862294685197
000670 c0 4e 1b b8 c3 49 7c 3f 75 c2 18 74 44 52 7a 3f
       0.006906284835810517 0.006426112553115195
000680 d3 59 41 35 70 94 79 3f c5 7c 52 95 e1 85 79 3f
       0.006245077431307827 0.006231194672323419
000690 e3 8e fd 62 5f a1 7b 3f a9 fa c0 75 91 3c 78 3f
       0.006745693783020565 0.005917137339621328
0006a0 b2 7a 74 dd c9 77 7a 3f c9 57 7d a3 56 f7 79 3f
       0.0064618954995966805 0.006339395935205113
0006b0 42 ac ff 76 f4 7d 79 3f c3 ed 91 dd 1e f8 78 3f
       0.006223635617042924 0.006096001213446059
0006c0 94 c7 d6 85 68 ab 79 3f 59 57 a8 cb 29 a0 77 3f
       0.006266983310910041 0.005767977966135118
0006d0 28 60 2e 85 87 6d 79 3f e8 05 b8 d7 8a 76 79 3f
       0.006207970977719447 0.0062165664235194
0006e0 00 00 00 00 00 00 f0 bf fd 60 fc 33 73 6c 77 3f
       -1.0 0.005718660366049952
0006f0 b0 6b 71 22 b2 e4 d4 3f 44 5b 6c c4 4b 72 77 3f
       0.32645848620966955 0.005724235502177436
000700 00 00 00 00 00 00 f0 3f bd 54 02 9a 7e 2d c4 3f
       1.0 0.15763838310218672
000710 4b 6a 0a 75 aa e6 db 3f bd 7d a3 64 42 bb db 3f
       0.4359537260985788 0.43330440357200556
000720 bc 2c e7 cc 36 fe c7 3f bc 4b 49 5b d8 b5 d8 3f
       0.18744549756079276 0.38609894671133893
000730 cc 2c 3a 3e a4 a5 cb 3f 81 73 a3 e3 d3 62 d0 3f
       0.21599247969093083 0.2560319636375468
000740 3a 97 a0 fd 2b 3b ae 3f 96 11 80 a2 5a c5 ae 3f
       0.05904519530331105 0.06009944184919218
000750 70 87 52 e7 ff cf b8 3f 6f 7c 4b 14 e7 0e b7 3f
       0.09692382237929364 0.09007114644508517
000760 c9 d3 fb 16 67 92 c4 3f 6a da 6a db 20 7a 9b bf
       0.16071785566569322 -0.026833070175337793
000770 89 f0 b3 42 e7 d2 bd 3f 9b c6 57 03 c5 a9 9a 3f
       0.1164993799065447 0.026038244561226703
000780 3c 48 74 75 d1 7d a6 bf 14 f6 04 dd 59 40 a1 bf
       -0.04392866667525694 -0.03369408438673474
000790 f7 15 7c 80 d7 3b b0 bf 83 71 1b a8 0d 94 a2 bf
       -0.06341311346849197 -0.03628580739106992
0007a0 e2 af 3d b3 44 b1 ad 3f d9 db 07 8b e5 51 92 bf
       0.05799307525634824 -0.017890535937080763
0007b0 94 44 a6 95 d5 d8 a6 bf 8e 4d 37 fb 28 60 b0 bf
       -0.04462306453491141 -0.06396728642658031
0007c0 ba 70 8b 71 74 c5 9f bf bf c1 66 de 2b a2 aa bf
       -0.031026668005197357 -0.05201851930485501
0007d0 69 9f b3 4b e1 68 b2 bf 5d fd 77 ca 17 fd b2 bf
       -0.07191284273323863 -0.07417439168056235
0007e0 9b 7c a3 72 51 6c a5 bf 84 ac 87 66 61 ed a8 bf
       -0.041842026943180254 -0.048686069265238024
0007f0 ae 1b 70 a8 c3 16 bf bf a1 f0 64 86 cc 21 9f bf
       -0.12144110548261608 -0.03040237016942682
