data/model_fda3_salami.npy (npy, 100432 bytes, 1 tensors)

array f8 [112, 112]
0.17366773464455365 -0.027860391509173046 0.1465360878660772 0.13737539008896912 -0.04789029749359124 0.0838958561322862 0.035147891032612705 -0.016771514873170346
-0.04470146987263459 -0.05289343155307854 -0.08989038004274913 -0.09221943180420107 -0.0655741138542892 -0.01474936139555451 -0.053095500616810426 -0.05132936293160572
-0.037548167837182914 0.07317074681609409 0.003930421818931587 -0.012726979229731143 0.03987617950591278 -0.03826818844300618 0.034408951305549884 0.04413622398671135
0.02775043003083102 0.06010240628161825 -0.028940166024265506 -0.04007575737340665 0.061685924131876256 0.02636372672150921 0.017487976389957895 0.04650626952118603
0.0186601333216565 0.015221487491859373 0.016591596720430982 0.01724442354165307 0.015303566713794388 0.017113020817234533 0.014997010910708061 0.014958050277543346
0.015275462830521962 0.016274405728974168 0.01794032738654207 0.015072756242473812 -0.005022241357630354 0.01790372723847408 -0.008841052803842012 -0.0006387653202036843
-7.436902214539289e-06 0.007877041455889201 0.010120937817395433 0.016379678218139813 0.008850557772264855 0.01829772730020384 0.01901834200983804 0.0021586865755690767
0.012934152897154456 0.014855710143218253 0.017133032630214106 0.014581623151787581 0.010085080668666016 0.013062997064368212 0.012452411300804484 0.018608574950151724
0.013352048712686389 0.011319491441715344 0.01202551424717773 0.011627783620408033 0.017355321614388165 0.012662891515629852 0.011460773918764617 0.008839088688144443
0.012447990452989163 0.011442533525053554 0.009077601561208324 0.008617646564642199 0.02477261297762871 -0.011710699792765435 0.02049217374484279 -0.017643392397551784
0.01296060180144195 0.0040456207162980805 0.015488387198194493 0.006485917840339746 0.018481289727682714 0.028142171997504784 0.01566871785977924 0.025371470190956157
0.010098693375947425 0.009356884130953699 0.012011885229626316 0.009414221790120435 0.004695337451511331 0.017999011809251803 0.008305578198387951 0.014674512969251754
0.00996165839417548 0.009181962697975799 0.014671479083271285 0.011460760052471096 0.014889099006937396 0.015116122166492855 0.012190067847813237 0.01104021000445183
0.016808568432477307 0.00861067920924349 0.01537973345114928 0.014279837166226833 -0.4083464197925302 0.03421626885762846 -1.0 0.03464972839578339
0.4669646789925628 0.038408464388749376 0.20567069133915716 0.289318060210285 0.057587900421856554 0.23848846751685326 0.1256779382639105 0.1632824367064423
0.042132477045814166 0.05566114713341809 0.06820532969326522 0.04391850372783021 0.11211851502118547 -0.05621391421172399 0.08929566026620818 0.011453225935267113
-0.034795720231873044 -0.03482782095654085 -0.053578281322800216 -0.007900625029876039 0.05155102012261146 -0.01760091837326406 -0.002710686785376625 -0.05528146061470276
-0.01993916513996215 -0.020590753271236797 -0.02601436136598825 -0.038013668194447923 -0.027753986263348514 -0.026115621501507945 -0.09495080547226127 0.00358775197268551
-0.01047605188974702 -0.011448807912853494 -0.0119280268319944 -0.013195300007189877 -0.011549921619912131 -0.009767093622715578 -0.012015230446847998 -0.008544397710201245
-0.009975239945791504 -0.011826313611810559 -0.010736099231294486 -0.012866192514737102 -0.0012667337687127169 -0.0075895259376093345 -0.013047621238774905 -0.007691548590246302
-0.008547476486492046 -0.01469069060778636 -0.011726924901350229 -0.011656221222161412 -0.011140169364773264 -0.013319436403121486 -0.010702836092264372 -0.013485538960443336
-0.01173995797547204 -0.010787163784217135 -0.008923804176615924 -0.010993995440481208 -0.010169606806354752 -0.010257852644480897 -0.013178176482590839 -0.011189609570653581
-0.01187487428950871 -0.011904036233519514 -0.012286343016341957 -0.010153007098928815 -0.009606205452898753 -0.011676046048696202 -0.012326481546461116 -0.011565528181799426
-0.011419486561364382 -0.010468415611863697 -0.012829992494201782 -0.012598715479580672 -0.0033178215654993937 -0.008554382414665527 -0.009396731121302168 -0.019527124661454676
-0.01460940528086286 -0.013135466924670044 -0.014476384123994867 -0.017350694804810735 -0.015630695452921766 -0.014665054955223265 -0.01317091391231421 -0.01151477827661303
-0.013165291024652288 -0.011481589233884072 -0.01158884984159687 -0.012368620870069045 -0.013255923330457428 -0.011147321520033815 -0.009927037563623214 -0.01422209813543223
-0.01053329608313009 -0.01028530252285659 -0.010864069747159553 -0.009977185213178344 -0.010245635747921384 -0.010211615571950425 -0.011553861987432454 -0.010970580656106264
-0.013595836802360109 -0.013049131682633322 -0.00987083989798564 -0.012879051811788523 -1.0 -0.013073321443563206 0.4669679286240182 -0.012799313120098542
0.04822234786503913 0.004107929239468166 0.0792768752040182 0.03436549398730223 0.0616418539047283 0.05155785546234433 0.05464986548413582 0.037560868630975096
-0.01611951629302489 0.024944388450223065 0.005879944917667729 0.02677911790872565 0.03119448840942459 0.0195639806607916 0.03631332349375829 0.01386517117915462
0.02734198536963106 0.03339759578859216 0.004026681896274097 -0.004236934424884214 0.02429474096131458 0.025944336378096445 -0.0006393801482103726 -0.011277540630803436
0.023279541082280163 -0.0026356591942152214 -0.0024725849915556296 0.0052025429114543695 -0.002924392385370598 -0.008402480422715866 -0.004815286126467159 -0.019508518191468635
00000000: 109a 558c be3a c63f f7e8 8a39 6f87 9cbf
00000010: 5cc7 88cc b1c1 c23f ef8a da4b 8495 c13f
00000020: f7b5 0fbb 1385 a8bf ceab 5be6 327a b53f
00000030: ac52 0485 e7fe a13f 2de0 894f 8d2c 91bf
00000040: d347 5f6e 1ce3 a6bf eb2a 630d d914 abbf
00000050: d434 8252 0e03 b7bf 6d9d a753 b19b b7bf
00000060: f5e5 7712 77c9 b0bf 0976 a5c6 e934 8ebf
00000070: ac8a 6d5d 552f abbf 0f45 3b9e d747 aabf
00000080: ba55 c571 8339 a3bf 6459 996c 51bb b23f
00000090: 2aad bf92 5819 703f 9c6c 8c3c 9a10 8abf
000000a0: 7a11 bc8d a66a a43f 5204 ae53 e397 a3bf
000000b0: 800f 18d1 0c9e a13f bf07 2fed 0599 a63f
000000c0: 67bb bad5 9b6a 9c3f c3e9 c71a bec5 ae3f
000000d0: 9bca 75aa 7da2 9dbf 13fb 8f46 cf84 a4bf
000000e0: 5336 8a25 4c95 af3f 9e3b 47c0 17ff 9a3f
000000f0: 9a1f ac3a 5ee8 913f a80e 4e75 abcf a73f
00000100: ff0b 6c59 a41b 933f 45c5 ca77 712c 8f3f
00000110: a1ef 3535 63fd 903f f25d 99ac 85a8 913f
00000120: f719 62f4 7957 8f3f 3fb0 fb62 1386 913f
00000130: 0ba8 31bb c0b6 8e3f ae22 0886 53a2 8e3f
00000140: 498d 4eea bd48 8f3f 159b 78e1 3caa 903f
00000150: e571 9efd f25e 923f b0dd f918 77de 8e3f
00000160: c264 23a6 3392 74bf b7ed dccb 5a55 923f
00000170: e2d8 3c05 421b 82bf 11f4 7d14 5aee 44bf
00000180: 84c2 681d 5031 dfbe 47ca 899b d621 803f
00000190: 04cb 7147 49ba 843f c64b 1099 d5c5 903f
000001a0: 8644 77c1 3d20 823f 3ecb 61b1 a3bc 923f
000001b0: d059 d353 8b79 933f 2cfd d107 18af 613f
000001c0: ead4 8e9d 387d 8a3f e9b4 caa9 ab6c 8e3f
000001d0: b3f1 4f5b 528b 913f c6e7 7954 f8dc 8d3f
000001e0: d50e 329d 7ca7 843f 4803 6fc9 c5c0 8a3f
000001f0: 9dab 585a a680 893f d021 5853 200e 933f
00000200: 91d7 71a4 5158 8b3f 5f6a 656c ac2e 873f
00000210: 1c10 4633 d5a0 883f 3037 ffb2 4ed0 873f
00000220: 6a3f fbea 97c5 913f cf9b 7587 00ef 893f
00000230: eaf2 5709 bf78 873f 0a77 bc66 3a1a 823f
00000240: be0c 2cff 547e 893f cc1a 30da 2e6f 873f
00000250: d2ed a60e 4797 823f 9f1a 4ff1 20a6 813f
00000260: 8b30 4dea fd5d 993f 1451 fc84 c7fb 87bf
00000270: 5d71 3b80 e6fb 943f 6a17 5a05 1c11 92bf
00000280: ac47 fd86 168b 8a3f 6542 b20a 2492 703f
00000290: 574b df23 60b8 8f3f bb0d 2450 fa90 7a3f
000002a0: 8389 df5b c2ec 923f bd83 7831 4dd1 9c3f
000002b0: ceac 1cdb 750b 903f f3e9 e28a fafa 993f
000002c0: dc96 41ae 9fae 843f fee3 adba b329 833f
000002d0: 1fe1 cbf1 af99 883f cc98 a575 c347 833f
000002e0: 2a4d c40c 6b3b 733f e5ff 523c 556e 923f
000002f0: 3f3e e4d5 8302 813f db22 4dca ab0d 8e3f
00000300: 6fa0 2228 c766 843f cdd6 012c fecd 823f
00000310: 4bd5 c596 140c 8e3f bfbd e62c bd78 873f
00000320: d7e2 690a 2d7e 8e3f 0f88 c792 33f5 8e3f
00000330: 6164 f035 1bf7 883f a4de 47e7 3f9c 863f
00000340: 121c d7ee 4336 913f eee5 cccc 79a2 813f
00000350: ba12 8de1 687f 8f3f 431d f84c bf3e 8d3f
00000360: 8da5 9c05 5922 dabf 0825 7877 cb84 a13f
00000370: 0000 0000 0000 f0bf 5fe3 8cf4 9bbd a13f
00000380: a440 2ad2 bfe2 dd3f 95e6 e034 46aa a33f
00000390: e410 86ce 6a53 ca3f 89b3 afe5 2f84 d23f
000003a0: 4d13 ea49 297c ad3f 28a1 3a44 ca86 ce3f
000003b0: bc0a 56f5 3616 c03f 812a d55a 70e6 c43f
000003c0: 95c1 0556 6392 a53f 8216 312d 9e7f ac3f
000003d0: 710a 728c e775 b13f bc8b 6672 7c7c a63f
000003e0: 84c5 4a8b ccb3 bc3f a62f 3df6 11c8 acbf
000003f0: 99a1 8494 14dc b63f 89f9 9af6 c974 873f
00000400: ef91 dfa0 bed0 a1bf 77a2 ffbf f3d4 a1bf
00000410: 5558 1dcc 9c6e abbf df5f f8f0 332e 80bf
00000420: 3d0d 0133 e564 aa3f a2c2 2ba3 f905 92bf
00000430: 98f8 f8e2 b834 66bf 039d d402 da4d acbf
00000440: 1523 beb8 ee6a 94bf f790 990f be15 95bf
00000450: 8748 2c3d 82a3 9abf ab6d 640b 8776 a3bf
00000460: 8fbf 567d 8a6b 9cbf 0605 0eb1 0dbe 9abf
00000470: c572 3b2c b24e b8bf 7368 71ac 0f64 6d3f
00000480: 54b1 0fe2 7774 85bf b1d9 82fc 7872 87bf
00000490: a19d 31a9 b86d 88bf 1e2f ef2f 2306 8bbf
000004a0: 5bf5 073d 7ca7 87bf 5005 7e1d c500 84bf
000004b0: a4bd 95ee 709b 88bf d3ab d5a5 b97f 81bf
000004c0: f406 b20a e66d 84bf 544a 8ff1 6438 88bf
000004d0: 421f aed8 cefc 85bf 8a43 9920 9759 8abf
000004e0: ddc0 ff06 11c1 54bf 1d58 1bdb 3116 7fbf
000004f0: 04cd 1614 b6b8 8abf 4f47 695a 2c81 7fbf
00000500: d451 c8df 5681 81bf f390 ba1d 2716 8ebf
00000510: 57b9 7837 4904 88bf 1a91 8d87 37df 87bf
00000520: 8bb2 bf38 a8d0 86bf 793d 057e 3847 8bbf
00000530: a900 ed57 5eeb 85bf 75ab 6e66 4e9e 8bbf
00000540: 9510 7d7c 1e0b 88bf 66c4 5b9d 9417 86bf
00000550: 607b c1b8 a446 82bf 0d34 f416 0584 86bf
00000560: dcf9 2b85 cdd3 84bf d0f4 14ad 1102 85bf
00000570: 5ef1 1be8 28fd 8abf 67a8 49f9 93ea 86bf
00000580: 748b bda5 da51 88bf afc5 81b2 2461 88bf
00000590: de7f 8a0b 9529 89bf e850 918b 19cb 84bf
000005a0: a023 1212 6bac 83bf 7cea 675f 9ce9 87bf
000005b0: ca33 ef58 a03e 89bf 6f13 6aea aaaf 87bf
000005c0: 829d 8b8a 1963 87bf 6a16 8df5 7670 85bf
000005d0: b43a 5d71 9c46 8abf 35b9 a6f7 5acd 89bf
000005e0: bbe1 c4e3 f92d 6bbf 32f0 aac5 f584 81bf
000005f0: 98a6 d7e6 973e 83bf 2034 3927 ebfe 93bf
00000600: 449b 292f 89eb 8dbf be88 df86 c4e6 8abf
00000610: b9df 0363 cba5 8dbf 3587 ff6a 61c4 91bf
00000620: 0bda 2237 7e01 90bf acef 695b b608 8ebf
00000630: 9435 1824 5af9 8abf 2930 f360 0f95 87bf
00000640: 1748 2573 67f6 8abf b406 20d2 a883 87bf
00000650: 2616 8b18 e5bb 87bf f28c 1131 b854 89bf
00000660: f8f5 75e9 eb25 8bbf b3ad ee2a 68d4 86bf
00000670: 3695 746d a054 84bf 9c3b fab2 7920 8dbf
00000680: e4ab 9111 7b92 85bf e198 b8ef 7510 85bf
00000690: 6cc5 1fc2 e63f 86bf 35ea 9221 eb6e 84bf
000006a0: 4a60 b6f3 a9fb 84bf 58e7 5dd7 d3e9 84bf
000006b0: 7835 071b 8da9 87bf 12bf 1669 be77 86bf
000006c0: 8851 6c53 22d8 8bbf fb7b 8bce 80b9 8abf
000006d0: fa00 5eb4 2937 84bf 0d54 ae12 5560 8abf
000006e0: 0000 0000 0000 f0bf fcce 6680 2fc6 8abf
000006f0: 3325 6e73 cde2 dd3f 0cc1 18ba 8636 8abf
00000700: 158a 087e 99b0 a83f 3305 cedb 79d3 703f
00000710: 9b90 5442 7d4b b43f 2b9c 92a1 5a98 a13f
00000720: 1ed6 2b65 858f af3f 7a15 208e ca65 aa3f
00000730: 3a67 f831 11fb ab3f 733f c29c 2d3b a33f
00000740: e238 396d a281 90bf 6020 7392 058b 993f
00000750: 6d87 fab1 9115 783f dae9 882e fc6b 9b3f
00000760: 76be 22ae 72f1 9f3f 2980 7884 9408 943f
00000770: 4428 a1f1 a897 a23f 72ae 24c6 5765 8c3f
00000780: 0090 e193 89ff 9b3f c3a3 5a5b 7d19 a13f
00000790: 8cef e430 487e 703f c68d a46c bf5a 71bf
000007a0: c415 9377 b8e0 983f 7d98 0af1 2691 9a3f
000007b0: 9d62 c369 82f3 44bf fe46 82e1 ad18 87bf
000007c0: 4606 758e 97d6 973f 969e 5cc1 6097 65bf
000007d0: a127 9cf5 6241 64bf ea5c 92fa 424f 753f
000007e0: 48a0 fc34 e5f4 67bf 887d f7d4 5135 81bf
000007f0: d1e7 f186 31b9 73bf 2ccc 807e 0afa 93bf
