data/model_olda3_salami.npy (npy, 100432 bytes, 1 tensors)

array f8 [112, 112]
00000000: a904 8987 1e07 dfbf 1595 7cfc 9195 cabf
00000010: 6fbe 4616 f68e e1bf d386 6dd2 3ef4 d8bf
00000020: 7660 f6a6 cabd 91bf 9e5c e4d0 e9ff ccbf
00000030: 3c7c e993 7fd4 c8bf 4b09 05a5 ff34 c4bf
00000040: fc52 c347 72a8 c03f 6ce1 dc8a bda4 bebf
00000050: b77b ff74 450d b43f 5b6e 5803 53f5 b3bf
00000060: 8307 3acc 0724 aabf fd48 829c a2d7 74bf
00000070: fa62 edc3 e5dd c6bf c47e 3d86 a0ed ad3f
00000080: f387 50f0 7dd1 aabf 91dc ffed c34a c8bf
00000090: 6e7b 4994 4c4d 91bf ef64 8c4b 7bbf a4bf
000000a0: bbe5 9b29 a662 b5bf 5f07 3bdd a5c1 afbf
000000b0: f0ae 4422 b154 abbf 6ebb 7532 c1e8 87bf
000000c0: af31 aefb e8c6 a9bf 89e8 70ae 742d aebf
000000d0: d1d7 4f91 c3da 973f ef0a fdf5 b560 a33f
000000e0: c591 c586 0a52 a4bf d481 0a7b bc85 b3bf
000000f0: f8bd 704e 5082 79bf 333d e437 8fd6 b4bf
00000100: b534 0ccb 48a0 7abf 6969 8c81 f541 45bf
00000110: f29e 9a5b 7c01 49bf 7979 9ebe 0bff 6dbf
00000120: b47c 4f4a d417 73bf 1466 a9b6 a66d 7dbf
00000130: 8c35 6a1b febe 69bf 1053 4b6e 4295 71bf
00000140: a143 0e85 4145 70bf e297 b91c 5572 63bf
00000150: 0586 7fe9 3cc5 70bf 8d26 e00e aa16 42bf
00000160: 4d30 d0dc 4a35 31bf 1016 6e80 0c7a 71bf
00000170: 4c85 ec09 98e2 953f cc71 eded 4711 8d3f
00000180: 135e dfbe 4cc7 803f 9459 2f26 29bf 663f
00000190: ff26 b20c 9737 59bf 0d93 ab18 be12 70bf
000001a0: f770 3ea0 60be 413f 7289 6f4d 0810 7bbf
000001b0: b6e1 3cdf 5835 80bf 5a2f 5c68 ad39 8e3f
000001c0: f3ff efa7 a386 67bf 7ea7 eca6 efad 603f
000001d0: 9058 aedc f912 83bf 04d0 3068 f1d8 69bf
000001e0: 41d4 1ab7 aaf3 673f 5ef3 b885 b0fa 42bf
000001f0: 6caa 5bfe cca1 333f 4e0a 612d a53f 86bf
00000200: b031 92cb e4f4 6abf fbdd 4512 815b 5e3f
00000210: 870c 8042 e226 2cbf 3fa3 4884 e20f 51bf
00000220: 93e6 4889 a653 76bf 37dd 678e 606a 47bf
00000230: c1aa fa73 736e 603f 0364 5d6b faef 643f
00000240: 6da9 4cb4 2ff3 4dbf 535f 939b 1931 2c3f
00000250: c770 31c9 02a5 673f f638 387b 201b 703f
00000260: 9e98 5ce6 3b52 9abf 2aed fa56 08f7 943f
00000270: 6414 ba19 82c0 6fbf 2430 a121 c4ab 9e3f
00000280: 9422 e305 074c 763f 3767 e4a6 5d5e 883f
00000290: c79d f4a7 d701 83bf 9acd 053b 3841 743f
000002a0: da6b ed2c 3380 3ebf 8852 e6cf fe02 90bf
000002b0: 3f16 c591 f617 7bbf e6f3 bb99 4fe6 95bf
000002c0: cb1c 5854 91cf 393f fe8f 9154 fcb1 59bf
000002d0: e58b e933 9671 473f 8f12 55df 5bac 7e3f
000002e0: fa25 8b29 b943 7a3f 6768 fc4d 7ad9 78bf
000002f0: 974f 4f58 f4b8 7d3f deb4 263b 4e5b 4e3f
00000300: de5b f0a9 20ba 5f3f 4cad 0cba ff12 663f
00000310: ac17 686f f326 59bf dd7a 4b44 9b44 4b3f
00000320: c47e 8a9a a3b0 51bf dd8d c818 0578 68bf
00000330: 17de e617 eaf3 32bf 88a2 a421 4781 513f
00000340: 6fc4 ff14 78db 7abf 9bac 9ad3 7d9f 5e3f
00000350: 4a34 8bca 48ae 77bf ccb7 07d1 8e36 40bf
00000360: 7d86 fc2f d226 dc3f 8fef db74 fcc8 653f
00000370: 0000 0000 0000 f03f f15d b65d 762e 683f
00000380: 6ac8 568d 4b83 efbf 846e 2b87 60d2 dfbf
00000390: 0000 0000 0000 f0bf 6dd4 be8e b863 e4bf
000003a0: d8a7 85a2 b7a9 d0bf ff45 942c 7a10 dabf
000003b0: be55 6e1c 8f59 d1bf 1fbc ee58 595b d0bf
000003c0: 7b66 cb2c f753 8ebf 8ab0 13b6 d2e1 a93f
000003d0: ba64 73ca 3bfa 963f d09f 70f9 fc7c 6f3f
000003e0: 73f6 46ab f793 b9bf 19fc 237d bbf4 84bf
000003f0: 58bd 906f f104 b3bf 6585 9f17 8f16 adbf
00000400: 9cca 8aad 1c4e 913f 8dee ea13 6662 b0bf
00000410: 858a 28ab f00b a03f 2542 e996 003a 7ebf
00000420: ee52 d6ad 9a0b b2bf 42b3 f772 3750 a8bf
00000430: 8d15 1556 a973 a33f 82b5 1115 55cb b03f
00000440: a054 acd8 3c43 a7bf 6798 a623 59eb a63f
00000450: 0184 a605 ccb2 843f 8f03 c226 6ea3 ac3f
00000460: 9a45 8180 9dd2 bc3f 16b1 7ab7 694f a33f
00000470: 4f26 076f 1e8f b93f 35d5 69dc 5006 a73f
00000480: 424e 3c66 df49 6f3f fb27 558b d6d8 7d3f
00000490: 9f61 4587 a7b2 713f 6eb7 4715 161b 773f
000004a0: 9da9 0098 996f 773f 6e3b 5266 39e3 773f
000004b0: 4935 39b7 0d19 843f 97d5 f858 eb51 773f
000004c0: d7a5 9225 025c 863f 5f6d a972 d56f 813f
000004d0: e801 0446 30d9 763f 4c9c 7206 7195 833f
000004e0: ce9c 5331 0b93 a03f e9f8 35c5 c480 89bf
000004f0: 2cad 5676 e0d0 6cbf ac97 4d0e 7648 6bbf
00000500: 2553 4f29 9e38 86bf 314e 3edc 005e 6a3f
00000510: 623d 094d 112c 67bf 32d3 32b9 777a 71bf
00000520: 0279 a9e3 c63d 80bf b953 2f1f 2c28 7e3f
00000530: b3cb 62b1 d1a3 213f 7496 88ab a604 66bf
00000540: e862 c736 8bf1 553f 1368 6178 f2b5 763f
00000550: b231 9ef2 4278 6cbf e352 d6d6 d133 29bf
00000560: e02f 5a52 79b6 56bf d857 9c02 cd5d 68bf
00000570: 356d fa64 aacc 303f 1ed9 3a1d 7675 71bf
00000580: 90bd f2e2 cef9 0ebf 2d8e 6c41 2721 563f
00000590: b053 c060 00f8 ebbe 4054 3e44 8de9 583f
000005a0: e7ec 82e0 8417 66bf e8bf 42da 2e55 4d3f
000005b0: 411e a857 cb63 053f 9797 4bb8 0aed 36bf
000005c0: a2ec 1ed0 dfc1 54bf 68d4 8869 405a 6dbf
000005d0: ad3a 66d9 9487 43bf 2700 25c5 4ee7 523f
000005e0: 9d5d 3633 2de9 853f 83f5 2755 5f04 94bf
000005f0: 1717 9ed6 9beb 733f 5904 6cc9 8336 76bf
00000600: 7225 d18f ced2 5bbf 6ba3 d5f3 f344 603f
00000610: 8c62 df0b 0d18 653f a1b2 ca7c 0a2a 67bf
00000620: 666f d652 b588 6b3f af28 82d8 c16c 773f
00000630: 7502 e501 5f50 753f ef81 52dc 4857 0a3f
00000640: 70ac a7fb 3eb5 793f 2458 4bda c89e 65bf
00000650: dc9e a152 fb32 56bf d724 4121 66fd 303f
00000660: 68a8 20a2 295a 67bf ea7f ee72 5d91 5d3f
00000670: 5569 b823 9e0e 70bf 8bb3 cad0 7f55 773f
00000680: e639 75d3 647d 48bf eab3 3bcd 27d8 7abf
00000690: edcc 69f4 5e76 4abf 4ca1 2652 ff67 35bf
000006a0: 48ca 376b ab74 773f bd1b c35e 8f0b 713f
000006b0: 7a66 03b3 2534 673f 0c7d f2f6 5f47 69bf
000006c0: 3a7f 5f1d efbb 733f 9f56 f0c8 3c47 673f
000006d0: c782 5b7e 8b5e 7cbf ab0c 5eeb 6726 653f
000006e0: 8aa9 bd22 3d16 a7bf 6181 895b 6660 41bf
000006f0: ff85 c71c 407b cbbf 3d93 2c08 916a 45bf
00000700: 7014 540f 314c b93f 0ae1 03ca cef5 e7bf
00000710: 0000 0000 0000 f0bf c5a1 6df2 1ab3 dcbf
00000720: 2d2c b5a4 aab8 c9bf 2e55 0d38 3e1f d6bf
00000730: ff79 8751 22b9 a5bf f1b2 a945 7e1a aebf
00000740: 6ac6 aa57 d2ba 783f 8168 0ea6 17f0 a8bf
00000750: 39c4 758f a38e c33f 1b69 c79f b95e b63f
00000760: be42 1024 3087 c93f 6468 a691 c84d b13f
00000770: e899 e088 1424 c23f fc02 fadb e83b c53f
00000780: fea6 f706 ccc3 9dbf 633e 0f14 0f45 c03f
00000790: ccb2 531e 1c60 8a3f abb8 f652 413b 9a3f
000007a0: 7932 4c13 7490 be3f 14c9 c100 b3b0 a63f
000007b0: b4d5 9286 6176 a33f 3843 8cea d4f2 92bf
000007c0: f2dd 440d a245 98bf 6cad 6660 4a65 b93f
000007d0: 4c0f f093 7b7a 613f 1740 0823 225e 96bf
000007e0: d749 8cc2 35f9 74bf f969 e926 2893 a6bf
000007f0: c0fc 27ce 8405 2bbf 67da 1d42 5aca a13f
-0.48480952487813994 -0.20768952206086824 -0.5487013278088407 -0.3899075560531006 -0.017325560036255593 -0.22655985545927576 -0.19398493501918945 -0.15786738927460883
0.13014057640125276 -0.11970123901563107 0.07832750421901734 -0.07796210128474838 -0.051056140594496056 -0.005088458252560321 -0.1786467749286869 0.058453575503106175
-0.05237954672362823 -0.189781657419847 -0.01689643530914558 -0.0405233888361155 -0.08353651538700195 -0.06202429128235453 -0.053380523141042135 -0.011674413063443825
-0.05034568855544152 -0.05894055013091399 0.023295455688604087 0.03784721973217652 -0.03968842406428367 -0.07625940326625563 -0.006227792450814722 -0.0813989173368455
-0.006500515316259105 -0.0006487320671085098 -0.0007631165710408601 -0.0036616544138745014 -0.004661397227180664 -0.007184649681755601 -0.003142830183896 -0.004292735572296605
-0.003972297607916981 -0.0023738539073745327 -0.00409435075559506 -0.0005520182000974969 -0.00026257589053169523 -0.004266785463987968 0.021372199636180242 0.014193117092582329
0.008192634177176783 0.00277669941850007 -0.0015391326039967954 -0.003924124301850862 0.0005414935881052064 -0.006607086593222499 -0.00791425162570723 0.014758448359792165
-0.0028718181997646696 0.0020360642150948896 -0.009313537642622799 -0.003155204294239768 0.0029238065988815014 -0.0005792009282640056 0.00029956106878495955 -0.01086358113037025
-0.003290602555870069 0.0018528709852868575 -0.00021478187522925107 -0.0010413848950838326 -0.005450869114207574 -0.0007145854440854586 0.002005792135454016 0.002555836773279642
-0.0009139998370291509 0.00021508634180266803 0.002886300507766479 0.003932120208913972 -0.025704322753107627 0.020473604496811827 -0.003875974752932042 0.0299521108175186
0.005443599160749674 0.01189873853268218 -0.009280857861610493 0.004945010805715988 -0.0004654049816303331 -0.015636426390829544 -0.006614649926921567 -0.021386379011335686
0.000393841725184929 -0.0015683139956985666 0.0007154448902152415 0.007488592983751942 0.006412242212442626 -0.006066777946921765 0.007256464455128417 0.0009264118182749322
0.0019364661200194015 0.0026946062720491267 -0.0015351655289363815 0.0008321531427915825 -0.0010797116939684085 -0.0029869174525331958 -0.00028919663591461933 0.0010684198992498024
-0.006556958265705778 0.0018690804267105568 -0.005781444874355899 -0.0004947850557621646 0.4398694485299542 0.002659314230980265 1.0 0.002951842483252192
-0.9847772369887597 -0.49721539688264493 -1.0 -0.63717296485869 -0.26035872336671906 -0.40725569108425924 -0.27109124924148975 -0.2555755012971889
-0.014808589033623356 0.050551018453775035 0.022438940269101627 0.003843778696609214 -0.09991405421802728 -0.010232414967047675 -0.07429417585148224 -0.05681273616188313
0.016899536220715036 -0.06400144563934358 0.03134109582267278 -0.00737953405639805 -0.07048956626961075 -0.04748700407421903 0.037991801984882924 0.06560260548004318
-0.045434857797013395 0.0447643142718313 0.010106653139532186 0.05593437407606593 0.11258873355224921 0.0377152477716171 0.09984007082598477 0.04497006121247652
0.003819404913778774 0.007286871017024406 0.004320768745252584 0.005641065847596367 0.005721664405465535 0.005831932275340941 0.00981341090587286 0.005693358732562179
0.010917679568893597 0.00851408725900765 0.005578220909456345 0.009562380799549207 0.032371854564013355 -0.012452637928387538 -0.003517568972446169 -0.0033304506090869514
-0.010850177417447046 0.003218652420352596 -0.002828630247939821 -0.0042671848961404624 -0.007930330107396081 0.007362530089228985 0.0001345818970484837 -0.002687764670798393
0.0013393268119356542 0.005544612073288507 -0.0034753139088421143 -0.00019227921022193289 -0.0013862786085239096 -0.0029744152169639375 0.000256339645582765 -0.004262410529625419
-5.908167474310687e-05 0.0013506778102020487 -1.3336542018330333e-05 0.0015205268436819935 -0.0026967616323339996 0.0008951643726700072 4.079784681115503e-05 -0.0003498221561087865
-0.001266926352839794 -0.003583074383892316 -0.0005959965517819598 0.001153780864640916 0.01069865524804819 -0.019547929356112725 0.004863365882447976 -0.0054230831071900515
-0.0016982094960148156 0.001986004323658743 0.002574944955068331 -0.002827663882575785 0.0033610860325107737 0.0057189533328118455 0.005203601000460458 5.024138548859527e-05
0.006276365306329898 -0.0026391909508261136 -0.0013549284290323349 0.0002592443790985893 -0.0028506100798227248 0.0018046772563380339 -0.003920190556096455 0.005696772842083041
-0.0007473699869622846 -0.0065537981752017225 -0.0008075679441631713 -0.0003266332952543041 0.005726499180570395 0.004161415137963806 0.0028324829400901393 -0.0030857919987991086
0.0048178997439832175 0.0028415858464637257 -0.006926102539836782 0.002581789939485176 -0.0450915436657225 -0.0005302905838782506 -0.21469880490535329 -0.0006535728610726832
0.09881884216527381 -0.7487558312996339 -1.0 -0.44843171763070827 -0.20094807665222572 -0.3456569239982227 -0.0424280857584911 -0.05879587746026072
0.006037542009538302 -0.04870675947241044 0.15279049401172687 0.08738289023259364 0.19943811188615784 0.0675931315985579 0.14172608073677329 0.16589079609914126
-0.029067218709236002 0.12710751037092213 0.012878627467637037 0.025616665543275612 0.11939168425687709 0.04431685814133082 0.03801255004638496 -0.018504454436939016
-0.023703128871799657 0.09920182088415225 0.0021335996275428145 -0.021843465221593385 -0.005120477676217003 -0.044091467618915865 -0.00020615812452715564 0.03474695260131427
