data/model_olda3_beatles.npy (npy, 100432 bytes, 1 tensors)

array f8 [112, 112]
000000 f7 d4 a0 6d fb 7a b6 bf 33 24 9f f7 b3 ba c2 bf
       -0.08781405855627954 -0.14632272330189408
000010 de dc 9e 9c a5 d6 a4 bf 11 2b 9b 66 6b 6d a8 bf
       -0.040700126045914095 -0.0477098047973269
000020 7c cf d7 d1 b8 1f bb bf a0 5d 59 6c 78 4d ad 3f
       -0.10595278857345919 0.057231677271086356
000030 e0 e5 ef e6 c2 7d 9a bf 64 9e 95 0c e6 78 b0 3f
       -0.02587036642578322 0.06434476668584349
000040 af 42 96 81 cf 10 b6 bf 1f e3 6c 11 73 62 8f bf
       -0.08619400895828265 -0.01532449623992843
000050 b4 94 07 1c bb 99 a7 bf 10 64 b3 4c d6 97 9c 3f
       -0.04609474866064414 0.02792296260017585
000060 f4 26 69 a0 10 80 aa bf 96 fb 10 42 fe a4 a9 bf
       -0.05175830801142736 -0.05008692318414558
000070 11 f6 8d ed 49 57 a7 3f b5 e9 2e ab ba 5b bf 3f
       0.0455878355487408 0.12249342612532284
000080 61 c4 30 6c e4 53 94 3f 46 53 2e c8 b6 c1 b8 bf
       0.019851273635314807 -0.09670584094267295
000090 ce d0 0b cf cb 2c b5 3f 76 11 ad 86 72 af 9a 3f
       0.0827147846683289 0.02605990359303819
0000a0 d3 88 57 1c a3 ee b7 bf 18 68 c0 60 ea c9 98 3f
       -0.09348506395284355 0.024207746653793633
0000b0 dd ca 43 b7 2d 2b b8 bf 62 d9 04 22 81 c3 a1 3f
       -0.09440885280836704 0.034694705393507844
0000c0 47 46 49 42 34 f9 8a bf 0c 1d e0 e1 22 c6 8d 3f
       -0.013170631668944511 0.014538071172877774
0000d0 f6 8b c2 47 15 cb 7c bf 9f 5c 3c 11 0e 55 34 3f
       -0.0070296126615714185 0.0003102454513607775
0000e0 dc 51 8e 2c 88 52 72 bf a4 e0 0f 6b bb d5 93 bf
       -0.004473239831800115 -0.01937001076655122
0000f0 be f3 ca ea c0 20 8f 3f f2 13 d2 4b 80 1b 7d bf
       0.01519919125109392 -0.007106305272036361
000100 4e fc ec e0 fd d3 5b bf 32 a8 4d 10 13 17 78 3f
       -0.0016984919818268276 0.005881380527037948
000110 c6 8c 50 d4 c1 3f 71 3f ba 41 32 43 8e 2d 81 3f
       0.004211194177545957 0.008387671876591497
000120 1a 2e 18 99 ec 0f 7d 3f 8d e6 f0 97 5f ba 77 3f
       0.007095264636074039 0.005792973911462729
000130 41 4a 4d 96 6d fb 71 3f 67 be db 2c c5 cc 79 3f
       0.004390171122241216 0.006298799720510929
000140 ec 8c 89 05 81 c2 80 3f ef ed 22 f0 3d 00 81 3f
       0.008183486920819459 0.008301242724306738
000150 8e 38 ed 3d b8 e2 74 3f df 49 eb d8 d0 bd 43 3f
       0.005099029250074006 0.0006024617922213946
000160 01 1e 57 52 84 2d 77 bf f8 3b f9 5b cb 2d a4 bf
       -0.005658642655766767 -0.039411883332483855
000170 ad a9 cd cf 9a bd a3 3f dd 7b a9 0c 32 9f 72 3f
       0.038555944315550185 0.0045463519150805405
000180 3a 30 59 63 92 79 9d 3f ba af aa 51 cb 2b 86 bf
       0.028784072221512448 -0.01082571833588718
000190 de a8 11 bf 19 1d 73 bf f0 37 bc 22 de 82 51 bf
       -0.004666424342852886 -0.001068798951510793
0001a0 2f 2c d5 5d a0 20 6e bf 01 bf c1 ac 25 7f 8e 3f
       -0.0036776668700091645 0.014890951475734495
0001b0 bd d0 c2 f3 9d e6 64 3f 43 a2 19 6c 13 23 5b bf
       0.0025513730052698345 -0.0016563119574134623
0001c0 a8 a9 c6 82 72 95 7e 3f ca ac be a8 b6 9e 83 3f
       0.007466742809280204 0.009580065750773765
0001d0 0a c3 18 8e 49 5b 45 3f 40 a4 58 9f db cf 87 bf
       0.0006517514377205335 -0.01162692623172934
0001e0 81 67 cf 17 7d c7 6a bf ba dc 8f dd 9c 6e 15 3f
       -0.003268951723367886 8.175690108190833e-05
0001f0 09 49 f3 4c e5 ed 42 bf d1 fe 46 bc 7d 9c 66 3f
       -0.0005776757842801693 0.002760167672221183
000200 24 84 35 67 31 08 52 3f a7 1b 0d 64 f4 f6 3e 3f
       0.0011005861714112964 0.00047248331616283685
000210 0e 37 72 e2 94 52 67 bf 58 a8 ea b6 ba 3f 56 3f
       -0.0028469951535673504 0.0013579676994291048
000220 aa 48 72 b2 d5 60 21 3f ee ba 2e 34 1b 45 6b bf
       0.00013258560759205523 -0.003328850872512993
000230 57 c4 bf e3 8e 3a 67 bf 26 42 1f 84 4a 44 56 3f
       -0.002835539895379695 0.0013590552994068388
000240 b3 2b 07 31 73 61 80 bf 57 01 c7 86 2d de 4d bf
       -0.007998371061054365 -0.0009114954278217996
000250 e3 b9 44 58 10 15 74 bf 92 a6 fb 34 a5 2a 7d 3f
       -0.004902900549764474 0.007120747890192585
000260 dd 1c e4 0b 07 ff 81 bf 10 e3 c8 c4 f4 a0 a3 3f
       -0.008787207651506918 0.03833737280041849
000270 d4 d1 59 e2 c6 b3 9e 3f de 16 53 2d f1 26 5d 3f
       0.029982669415817245 0.0017793040508861583
000280 be 29 b9 bf 4e 17 9b bf ca b9 fd 6b e2 21 71 bf
       -0.026456098987446934 -0.0041827053645264265
000290 15 f8 6c 97 4e 28 78 bf dd 2f 44 a1 a1 b7 79 3f
       -0.005897814748832904 0.006278640143374728
0002a0 3e b7 0b 27 05 1e 87 bf a1 41 32 fd 7c 15 57 bf
       -0.011287727598268679 -0.0014089317890332092
0002b0 ec 5d 80 42 03 c6 83 3f c4 08 de e3 72 61 85 3f
       0.0096550230664851 0.010439775065382746
0002c0 11 6e b1 dd 40 a4 75 3f 33 85 8e 02 85 77 3a 3f
       0.005283597357528717 0.0004038524371542007
0002d0 ed 27 53 ad b9 e9 8a bf c0 97 a8 23 b7 31 86 3f
       -0.01314110813327215 0.010837012077057895
0002e0 f9 9f a8 52 97 80 83 3f ea 41 c9 24 ae 6c 80 3f
       0.009522611818354664 0.008019791123985837
0002f0 0e 6a 37 69 cd 09 77 3f 66 4e b4 a6 39 ea 51 3f
       0.005624582659459877 0.0010934412956133065
000300 01 1c 3d 00 44 03 86 3f 62 5d 10 f3 f5 a1 68 3f
       0.010748416192326362 0.00300691639905508
000310 ad d8 58 fa cb 64 65 3f df cb 45 43 a8 7e 66 bf
       0.002611540216800176 -0.002745941770791557
000320 14 c1 ec 8b 5d 24 6e bf 85 28 60 dd ba 4e 39 bf
       -0.0036794497567812588 -0.000386162396694652
000330 91 d1 6f 58 75 b9 73 bf 98 b2 42 c3 a5 5d 70 bf
       -0.004815538769424769 -0.003995559225739818
000340 9c d2 88 d4 75 c4 60 3f b8 68 e2 ef f7 74 77 bf
       0.0020468045588820215 -0.00572678423318445
000350 f8 a1 46 e8 60 15 63 bf 91 5f 51 b1 53 02 72 3f
       -0.00232953002178626 0.004396750378042117
000360 68 f9 63 c8 c9 1c e2 bf b6 c4 43 59 7e 3a 8b bf
       -0.566014186275237 -0.013295161341803623
000370 00 00 00 00 00 00 f0 bf 71 31 fd a8 a5 94 8c bf
       -1.0 -0.013955396861682986
000380 00 00 00 00 00 00 f0 bf 2f f2 e3 89 6a 4a ec bf
       -1.0 -0.8840840047046806
000390 94 bd 12 ae 56 03 e1 bf 3f 20 f2 99 64 3b e2 bf
       -0.5316575431697168 -0.5697501188997264
0003a0 dc 5d ad a0 7f 18 df bf 58 72 63 02 f5 8e d2 bf
       -0.485870272551862 -0.28997540696380986
0003b0 d1 05 90 77 1f 84 94 3f 67 4d 8c c1 e9 2c d3 bf
       0.020035258934518133 -0.29961627865960455
0003c0 9e f0 e1 1b 22 23 a6 bf 86 9e ea 33 8e 2e bc bf
       -0.0432367953335142 -0.11008538024418088
0003d0 ae 61 28 1a 87 98 c8 bf d7 e2 fc 6e 65 2c b4 bf
       -0.19215477730973646 -0.07880243262924168
0003e0 2e 17 04 92 85 e0 af 3f 36 13 bf 9a 2b 0f b4 3f
       0.062259840082374715 0.0783564808653637
0003f0 35 ea f5 55 5f 29 a0 3f 7d e3 7d f3 02 f7 b0 bf
       0.03156564640353957 -0.0662690968000685
000400 61 c8 4a 5d b2 30 c4 bf ad c9 3d 72 12 3a c4 bf
       -0.15773610644606875 -0.15802221849624
000410 7a c8 c1 e7 0c 3a 84 bf 71 f5 8b 25 00 db c3 bf
       -0.009876347372685713 -0.15512086709342612
000420 83 fe ef b0 1d 79 b7 bf 19 a8 14 32 a9 a0 aa bf
       -0.09169183320772771 -0.05200699554764316
000430 0a 3b ed c8 3d c0 ba bf d5 65 40 60 b2 88 a3 bf
       -0.10449587016522002 -0.038152288674790626
000440 c8 7d b8 18 fe c3 c0 bf 20 12 4c a7 23 9e b8 3f
       -0.13098121840537957 0.09616301378634562
000450 db 9c b0 64 e3 c3 b0 bf b8 23 b9 57 1f 95 ad bf
       -0.06548901756524421 -0.05777833886947498
000460 17 97 18 fd 0d d1 bb 3f f6 ec c6 68 0c 6c 9b 3f
       0.10865867070296208 0.026779359717449013
000470 16 83 09 bc e3 e8 79 3f 8d ae a7 1c 21 04 c1 bf
       0.0063256164436047615 -0.1329385175625827
000480 ff 3e 28 01 30 68 a5 bf 42 28 a5 8a a5 d6 a5 bf
       -0.04181051267744173 -0.04265324895330071
000490 79 52 f5 0e a3 d2 a3 bf 13 25 9d 4e f4 78 a3 bf
       -0.0387164073714858 -0.03803218326226889
0004a0 35 08 50 a2 69 9d a3 bf 55 6a 97 f6 8f ab a2 bf
       -0.03831033808093346 -0.036465166903970093
0004b0 f7 cc b2 70 21 67 9f bf 0b 59 cf a6 48 e9 a0 bf
       -0.030666849616591354 -0.03302981411222746
0004c0 7c 0e 22 a1 08 c6 9d bf 87 e6 ec 30 74 ce a3 bf
       -0.029075751147060278 -0.038684493038499794
0004d0 b6 d2 4b bf 78 85 a7 bf a6 0f 7b 9d b7 fc a2 bf
       -0.04594018302114959 -0.037084329580039196
0004e0 db 7e 7c 34 54 92 9b 3f 47 e6 87 23 c2 c7 82 bf
       0.026925388053426907 -0.009170071324649543
0004f0 2e ed 21 92 81 49 8f bf 11 42 04 77 bd 1a 86 3f
       -0.015276920578108557 0.010793190188025855
000500 68 c0 94 fd d6 cd 97 bf c8 b2 56 da e6 05 77 bf
       -0.023246154048309015 -0.005620862740596429
000510 2e b9 e8 bb a2 c6 73 3f 90 4d dc 06 5c 7a 89 bf
       0.004828105621113727 -0.012440413436286574
000520 81 43 90 74 58 f8 8f bf e0 42 bd ee 4c 91 48 3f
       -0.015610400254475245 0.0007497430465069586
000530 12 15 97 a6 c5 d9 83 bf ef ca 12 3d 59 4a 81 bf
       -0.009692711016109832 -0.008442589927971393
000540 1a 57 b9 2a 6e 9a 90 3f bd 5e b3 0a a3 e5 81 bf
       0.016214104993500823 -0.008738778842981682
000550 c5 19 ab f9 47 d7 81 3f 1f 1e 40 da 8a 72 52 3f
       0.008711397463582746 0.0011259418470234218
000560 f0 37 c6 d1 e4 e9 72 bf 0c 16 40 76 b7 f4 fd be
       -0.004617589784528406 -2.856819573084615e-05
000570 b8 0c a3 84 be eb 6a 3f 8a f6 f0 95 60 e6 80 3f
       0.003286239724816644 0.008251909805149244
000580 f1 b5 f0 72 58 56 35 3f 70 68 d2 40 67 08 45 bf
       0.00032558116339739736 -0.0006418708959643592
000590 d0 4b 61 75 bc 70 6d bf 8a 6a d2 88 b8 fa 86 bf
       -0.003593795855559169 -0.01122039954707545
0005a0 b9 fd d9 5e 32 75 75 3f c5 2e c8 7d 80 be 73 3f
       0.0052387206648058455 0.004820348662643863
0005b0 0b 15 8b 35 73 e6 6f 3f 73 f7 f0 0f 74 fa 76 3f
       0.0038940668276575877 0.005609944694752278
0005c0 f7 2e f4 08 8f ee 73 3f 81 2c 76 b8 9f d1 77 3f
       0.004866179209112912 0.005815147312556169
0005d0 83 37 a0 2b 81 1d 55 3f 9d 47 a1 5e 21 51 63 3f
       0.0012887727193659777 0.0023580219031282394
0005e0 3d 2f 53 29 0c e9 87 bf 82 ec 3a 2a 84 03 ab bf
       -0.01167497159112651 -0.05276120200638791
0005f0 e0 ed 87 55 c0 a3 b0 bf c0 6b dd c9 40 ec a3 3f
       -0.06499864662321597 0.03891184295817807
000600 61 8e 1e b1 eb 7d 81 bf c9 34 ff 52 75 7a 87 bf
       -0.008540955870393665 -0.011464039416660647
000610 fe 57 ea f8 12 36 57 bf 8a a5 cb da 67 b8 96 bf
       -0.0014167008663767962 -0.02218782685205193
000620 ec 98 97 13 d8 f5 77 bf 7f 24 eb 7a 95 d0 95 bf
       -0.0058496895303277 -0.021303496959067744
000630 f5 55 64 ef b8 94 82 3f f4 44 25 37 74 f4 94 3f
       0.00907272797170842 0.020463767877406405
000640 12 7c 59 75 9a cb 7e bf 6a 4a 13 a0 65 49 8c 3f
       -0.007518390038597127 0.013811868617641571
000650 03 1f 44 78 33 9b 6c bf 24 cf 23 ad c1 00 77 3f
       -0.003491974379475128 0.005615955875544452
000660 73 c5 69 10 e2 d9 76 bf f1 d1 e9 c3 79 01 7f 3f
       -0.005578883231110654 0.007569766660357123
000670 bc 0a 3b 1d b7 b4 62 3f 9a 96 2f 2b 4f 77 8d 3f
       0.002283437390219715 0.014387720590046716
000680 12 44 38 5b 64 67 63 bf 76 e9 7b 20 d5 3b 7f bf
       -0.002368637093021161 -0.007625420119206408
000690 3c 65 dc 6b 3f 7c 71 bf 22 14 15 d6 89 be 81 bf
       -0.004268882503106138 -0.008664204450392236
0006a0 06 33 17 37 1b 9a 74 bf bc 12 01 06 1d c1 73 bf
       -0.005029779729238687 -0.004822839138857556
0006b0 87 04 c1 83 7b 72 83 bf b8 29 49 8d c8 e2 70 bf
       -0.009495701750099407 -0.004122527509546385
0006c0 e0 a6 7a 0d d0 bf 62 bf 70 2a 38 f9 be 19 7d bf
       -0.0022887290504812613 -0.00710463141468641
0006d0 b5 7c ab 26 dd fc 7b bf a0 f3 ca b5 52 a6 52 bf
       -0.006832946654611029 -0.0011382873264402585
0006e0 80 7b dc e0 d3 f1 b1 3f cc d9 08 bb d2 5d 64 3f
       0.07009624709870188 0.002486144622049857
0006f0 cc 41 10 c2 c3 3d c3 3f 81 a3 46 16 29 71 68 3f
       0.15032240844494849 0.0029836466294068113
000700 6c 4c 0f 8c cb 8a 5e 3f 8f 9b c7 75 18 0d e7 bf
       0.0018641460194331006 -0.7203485775361161
000710 00 00 00 00 00 00 f0 bf e3 be 20 2f 3d 14 c3 bf
       -1.0 -0.1490551452748071
000720 ef 81 48 a5 49 23 b2 3f 60 56 44 81 6f a5 d2 3f
       0.07085094723925754 0.2913473856327524
000730 c1 c0 d3 a4 9e 98 cb 3f ee a0 b3 3e be be db 3f
       0.2155950836963765 0.4335170376130141
000740 f6 c6 7d 5c 24 11 75 bf 88 e3 ce f5 b7 cc d3 3f
       -0.0051433010447554574 0.3093700314016634
000750 3f de f1 7a b6 6f d9 3f c4 68 e6 6d 75 11 c0 3f
       0.3974434090264118 0.12553279749119473
000760 0f eb 04 17 52 a2 bb 3f c0 1d 89 9e 26 28 b3 3f
       0.10794556676857446 0.07483140345094963
000770 b0 0d d5 83 1f db cf 3f 5d 9f 7a 04 9d 12 bb bf
       0.2488746064865217 -0.10575276717520184
000780 38 fd 28 98 1b 8e cb 3f 5b 11 54 5b 96 2f ae 3f
       0.21527428559964235 0.0589568125233508
000790 3e b2 f6 2d 3f fe d2 bf bf bb bc 08 21 68 c5 3f
       -0.296767992864975 0.1672402661001495
0007a0 a7 24 e6 f5 c5 6d cf bf 88 47 69 ea b6 f4 ba bf
       -0.2455375147513099 -0.10529654715472081
0007b0 3d 73 33 05 57 e1 b7 3f 85 66 f5 43 63 3c d0 bf
       0.09328216435410482 -0.25368577610570525
0007c0 fe 2f 71 26 d9 3a b1 bf f0 ff 10 be c7 91 b7 bf
       -0.06730420292404912 -0.09206817999165628
0007d0 8d f0 f3 e8 0f 12 aa bf a4 86 52 5c 8b 13 a5 bf
       -0.05091905325568389 -0.0411647367666437
0007e0 30 9b c4 20 a6 25 73 bf f7 ef 4b 93 f5 f8 94 3f
       -0.004674576699733632 0.020480954280159804
0007f0 a7 75 13 54 89 d8 b9 bf 4c 85 61 23 8e 36 92 3f
       -0.10096033384930668 0.017786236676675046
