data/model_fda_beatles.npy (npy, 100432 bytes, 1 tensors)

array f8 [112, 112]
0.029703389926294094 0.06223671720111168 0.000576001028850379 0.009696257354840455 0.007346565507222266 -0.018541815071966724 -0.010913935932536329 -0.013523291429445836
0.00913346708655016 0.00020290179922074025 -0.008505901401947165 0.00034665829616005515 0.01370461913160234 -0.002057409163521367 -0.03317714508966135 -0.024984620696787627
-0.021295827107931584 -0.0038420864097343512 -0.016572836734334205 -0.027127125092833316 0.005300700252277918 -0.010761566004326012 0.0007790997195860741 -0.018021479024992532
-0.017369231933102657 -0.010578296212561863 -0.013068051933786535 -0.008367216633053065 -0.01371984267385581 -0.01514462115597415 -0.016816296875751778 -0.017271636145613698
-0.013672988910897039 -0.01433237405878594 -0.014138162722007486 -0.014398396881444335 -0.014309082161071325 -0.014057715083140562 -0.014010290211156913 -0.014279117075945572
-0.014345880445145391 -0.014567540175334468 -0.01448720759982558 -0.013919590112757833 -0.014768784575312464 -0.016519506663039706 -0.012751834855779052 -0.016247401850224132
-0.013751539264713319 -0.016184067455105276 -0.015184325896229584 -0.011802447393368621 -0.014487573013370005 -0.013666511196036174 -0.01355709321753329 -0.013889523721324824
-0.013972662454089329 -0.013648936563995868 -0.01397770538220855 -0.013186508420780582 -0.014146500288426659 -0.013878805059819968 -0.014078959259551594 -0.013509021411032742
-0.013266543267959964 -0.013447109475164466 -0.013865097298536104 -0.014105619420616451 -0.013435023520881627 -0.013622732406635384 -0.014222487146618383 -0.013256773843926083
-0.01324861684288369 -0.013885410132672481 -0.013849638366749413 -0.013709901578206653 -0.011142276676618053 -0.01249340239458243 -0.018187128369733803 -0.011824471788265241
-0.01675834873521136 -0.01488444079991612 -0.012934482175921714 -0.012606476247253902 -0.013295459788796735 -0.013857388902588877 -0.012551837034212997 -0.014252702533358308
-0.014493417748232967 -0.015275094941427002 -0.013336626922290283 -0.014408062071188766 -0.015255177130114483 -0.013907886914539582 -0.01393727048190574 -0.013580576374716526
-0.013721794105151144 -0.014272741279440962 -0.013561722358233155 -0.013969452941265245 -0.013459606982002029 -0.013624454905129074 -0.013551366695916339 -0.013418958680794022
-0.013669666490904158 -0.013476547869118055 -0.01383086686613721 -0.013344299717109542 0.3690246768880554 -0.013343339025062463 1.0 -0.01341142275525132
1.0 -0.7229420502882773 -0.06335074584169283 -0.14393137969371186 0.08866711806371802 0.16055301990826706 0.024532209519710822 0.35252624240374936
0.028501627801356528 0.13045369960676848 0.23342713550197416 0.03648237953837182 0.07928122494010577 0.008168114161641895 0.10052659485786125 0.04186188538101838
0.11499226979813801 -0.0086167689743862 -0.10830946639842977 0.06274563171470102 0.02739436059555231 -0.07114960846048478 -0.07654972324645255 -0.08273384841764346
-0.013813734817860248 -0.07816292963900363 -0.0003148819755969236 -0.004165343929174972 -0.1103945959870035 -0.014965709876901016 -0.03936061396812363 0.013288626421834988
-0.00800170627202747 -0.007483460833974198 -0.007909212512585709 -0.009745971207233224 -0.007433729003595677 -0.007832222803594491 -0.007466049333908252 -0.007436337304784887
-0.0099878188682625 -0.008484413555911206 -0.01051068684361257 -0.008519136279267958 -0.010923577935519476 -0.016231111876817507 -0.025244496000919513 -0.011054610494491298
-0.013536045942714861 -0.012915235859532543 -0.015246405076729318 -0.015285212829139543 -0.014020421363245966 -0.01388659852448492 -0.013009313482828532 -0.016655742163949203
-0.015940396936998644 -0.01273494420305611 -0.015621724119871809 -0.015125003689442232 -0.014991019192687213 -0.014321672928911006 -0.015451644960369881 -0.01670501542942942
-0.01461086081792382 -0.016221337147477193 -0.015537775469057423 -0.013247894146862824 -0.014756757521882217 -0.016416356400113075 -0.015253943495018452 -0.015298348702872128
-0.012065814743928593 -0.01670489618069679 -0.013815156309998302 -0.015302844438919074 -0.019792218904820497 -0.01615303392408593 -0.018509650501334438 -0.013700423141456431
-0.012552447237330337 -0.012549116116939754 -0.011343268109829701 -0.01345569840177524 -0.014374893383828769 -0.011934212158417468 -0.012665492071489794 -0.01542379846038981
-0.013885753880745984 -0.010554330222233801 -0.01411255019475089 -0.015912629520992424 -0.015853370240295178 -0.01455106814510357 -0.01421844510374446 -0.015063882777812131
-0.01510369485637703 -0.013407065815185942 -0.01565692436223873 -0.015605679464201364 -0.012596481071867756 -0.0150894830196848 -0.014307041714027871 -0.014864813518706872
-0.014800573134934127 -0.015317181652974264 -0.015700963139322018 -0.01476381430933123 0.36047096753896646 -0.00736914432419184 -0.16379468698561936 -0.006535905493366328
0.03657185264714227 0.0032339028784340073 -0.008962344262323348 0.009027204831266565 0.02639654358242425 0.023466123775239604 -0.015442236229428892 0.012953404742154319
-0.009970020592357723 -9.20294212537929e-05 -0.0041382981886645374 -0.0009180028127558933 -0.0030708350946564394 -0.012199283606743614 -0.0076245719767513405 0.007643016345021142
0.0018753641648060107 0.005864593771665607 0.0039055373733407573 0.014925134594866113 0.005437602571043468 0.011532491894619619 -0.009147253257955177 -0.013500565483597527
0.014314892663111825 -0.02101208441524256 -0.001496746327523646 0.0020547597121281743 0.0022033457419001487 -0.0017001999912803498 -0.00028176075199591436 0.0012452533863996473
00000000: a84c 41c1 906a 9e3f 3075 fab1 7ddd af3f
00000010: b77c 6aca d8df 423f f471 dca1 a1db 833f
00000020: 238b 76a9 6e17 7e3f 7fcc 5e25 a0fc 92bf
00000030: 0a02 35af 0b5a 86bf 72d5 6373 19b2 8bbf
00000040: ff91 7c33 91b4 823f 876a 142f 4198 2a3f
00000050: b741 c1c2 8a6b 81bf 0c35 7e0b f6b7 363f
00000060: 6f81 cbd7 2a11 8c3f f24e 4c22 b3da 60bf
00000070: f8fc 4442 98fc a0bf 7cc3 2e83 9195 99bf
00000080: cc1c e1c3 92ce 95bf be89 4d6f 7079 6fbf
00000090: e688 1a3f 78f8 90bf 3dd1 6e8c 36c7 9bbf
000000a0: 87c1 abe3 2fb6 753f d0ae 56f0 280a 86bf
000000b0: 69e2 70e8 8f87 493f 65cd 26fc 3874 92bf
000000c0: 36f0 6f6c 3dc9 91bf 2b2a 3ee2 12aa 85bf
000000d0: aaa1 6c3d 6cc3 8abf 004d 61ce d422 81bf
000000e0: 6d4b b91c 2619 8cbf 420c 9aa4 2404 8fbf
000000f0: d616 7c94 4a38 91bf 2946 93e1 a7af 91bf
00000100: 6ade af81 9500 8cbf 7629 daae 4a5a 8dbf
00000110: 2de4 2114 78f4 8cbf 9cda c31d e87c 8dbf
00000120: 5133 577f 144e 8dbf 3800 4f94 4aca 8cbf
00000130: 6477 1d52 6db1 8cbf 1504 dba6 5e3e 8dbf
00000140: 3cf9 c07a 5f61 8dbf 85fe 1625 96d5 8dbf
00000150: c01a d016 78ab 8dbf 1cd3 76c2 df81 8cbf
00000160: 2c66 05b6 183f 8ebf 838a 7453 7dea 90bf
00000170: 5244 5b4d a21d 8abf 07e2 5dae 28a3 90bf
00000180: d3f6 4a5b c429 8cbf c665 be61 8e92 90bf
00000190: ddc1 16b9 f518 8fbf 67c9 89ac e12b 88bf
000001a0: 01a2 5322 a9ab 8dbf 9d61 1915 30fd 8bbf
000001b0: 002b fc3f d2c3 8bbf 12f0 1e51 1c72 8cbf
000001c0: 3615 3a02 b39d 8cbf aa1f 5741 f9f3 8bbf
000001d0: 80ec eadb 57a0 8cbf ab50 5333 8701 8bbf
000001e0: 75b1 bb20 d7f8 8cbf 7b44 b7ae 7d6c 8cbf
000001f0: 7ae4 a6ec 6dd5 8cbf 8e71 4a29 9eaa 8bbf
00000200: 871f bc4b 7d2b 8bbf 7a5c 5f7b 288a 8bbf
00000210: 6fe3 9fdb 4d65 8cbf 249b cf30 68e3 8cbf
00000220: 2c3a 2555 d283 8bbf 8c69 5931 3ce6 8bbf
00000230: 1cd0 4ce9 ad20 8dbf 398c e110 5e26 8bbf
00000240: bb98 7540 1722 8bbf 267f 4a33 f46f 8cbf
00000250: 64de c5fe 325d 8cbf d438 47d7 ef13 8cbf
00000260: 04b6 6e0f c3d1 86bf 8c9f 9a15 2496 89bf
00000270: 2282 3986 a59f 92bf 240e fcbc 6d37 88bf
00000280: adc2 02bf 1929 91bf 399c a3d3 bb7b 8ebf
00000290: ad7f 7dcf 647d 8abf d719 9999 6cd1 89bf
000002a0: 3248 d367 a63a 8bbf a815 2841 4361 8cbf
000002b0: 6c88 880c c7b4 89bf 8047 155a 8530 8dbf
000002c0: 762d e399 b9ae 8dbf ccd9 bb89 8c48 8fbf
000002d0: ecf2 c2c3 3b50 8bbf 5aec 275b f981 8dbf
000002e0: 40bf f236 1b3e 8fbf bba3 a2fb bc7b 8cbf
000002f0: 4084 52c7 248b 8cbf f434 1f1b 22d0 8bbf
00000300: ae7e 6407 2c1a 8cbf e8de 27e8 063b 8dbf
00000310: 7b60 0c90 3fc6 8bbf ebb9 343c 049c 8cbf
00000320: d50c 70de b590 8bbf b664 f261 23e7 8bbf
00000330: e354 33a6 d1c0 8bbf 056e 7125 667b 8bbf
00000340: 768d 3494 d7fe 8bbf 5d00 e3a2 9799 8bbf
00000350: 3d51 ec86 5b53 8cbf 60eb fb96 4154 8bbf
00000360: b0ac a9ad 199e d73f c14e dba5 c053 8bbf
00000370: 0000 0000 0000 f03f 0559 03b1 7277 8bbf
00000380: 0000 0000 0000 f03f d885 dc5d 5722 e7bf
00000390: 2d39 9125 c137 b0bf 118a 53ec 576c c2bf
000003a0: 0472 5064 e3b2 b63f 7bd8 e358 008d c43f
000003b0: 26d6 57b6 f81e 993f 9bc6 863a ca8f d63f
000003c0: 758a 28dd 872f 9d3f 0905 baf2 b4b2 c03f
000003d0: a96e 7dbc f0e0 cd3f 0bc1 fe85 d1ad a23f
000003e0: 8df8 4d3c c64b b43f 0ed1 8db9 71ba 803f
000003f0: 0cf2 4a65 1cbc b93f 991c 52c9 eb6e a53f
00000400: 5e68 1326 2270 bd3f ac93 8927 aba5 81bf
00000410: 9949 0750 2bba bbbf de76 2e04 1910 b03f
00000420: 9831 696b 440d 9c3f 3f03 7659 dc36 b2bf
00000430: 6582 dc3d c398 b3bf 23db 39a5 0b2e b5bf
00000440: 2103 3a1a 604a 8cbf 311f 8f5a 7c02 b4bf
00000450: dabf 8bc9 d7a2 34bf 5d06 3dff ad0f 71bf
00000460: 1758 6bfb d142 bcbf 2f99 dc93 57a6 8ebf
00000470: 71b5 7c0b 1327 a4bf e4d4 1f3f 1137 8b3f
00000480: 8a23 01d6 3263 80bf e65f af38 faa6 7ebf
00000490: 881d a188 b432 80bf 9195 d21c b2f5 83bf
000004a0: bd06 536f d472 7ebf 6d13 5f26 570a 80bf
000004b0: f2e6 825b b894 7ebf 89ce 6a98 9075 7ebf
000004c0: 8133 2e5b 7e74 84bf 72ad fcb5 4660 81bf
000004d0: c6b6 0382 a086 85bf d34e ad1d 7b72 81bf
000004e0: 0b2b e8cf 195f 86bf 0a2d c17a e39e 90bf
000004f0: 466c e972 b1d9 99bf 7ed2 59b4 cca3 86bf
00000500: 4800 2155 c9b8 8bbf 6a34 189d 4d73 8abf
00000510: e62c 7dd9 8139 8fbf c95b b589 da4d 8fbf
00000520: f0a9 d919 bdb6 8cbf fc6c 1fb4 9370 8cbf
00000530: 4606 9e7f a0a4 8abf 2c01 8aef 330e 91bf
00000540: 3961 1eee ad52 90bf c7b5 f246 c714 8abf
00000550: afa9 9d51 48fe 8fbf b592 95a1 dbf9 8ebf
00000560: 0b95 5489 9cb3 8ebf dd56 d466 ae54 8dbf
00000570: 808b 31ae 1ca5 8fbf 2e57 cb9b 1e1b 91bf
00000580: f3fd 088b 4cec 8dbf 5ee7 2e82 539c 90bf
00000590: b902 f0eb 44d2 8fbf 982b d040 b621 8bbf
000005a0: c2a4 9c77 ca38 8ebf a08e 6e07 73cf 90bf
000005b0: daaf 91a3 753d 8fbf 6aa3 e49a bd54 8fbf
000005c0: 2053 cc3d f6b5 88bf 39de 1d9b 161b 91bf
000005d0: c116 53e4 1e4b 8cbf 4e1c 3503 1957 8fbf
000005e0: 385a a553 6944 94bf 1892 bdc1 6b8a 90bf
000005f0: f925 419e 31f4 92bf a7dc abaa f70e 8cbf
00000600: 5cea f3f2 18b5 89bf 7b17 87da 59b3 89bf
00000610: 56e8 7dac 233b 87bf 60ca a444 a98e 8bbf
00000620: ed7a bc87 9570 8dbf ad34 64d7 f670 88bf
00000630: b4dc e091 5df0 89bf 9760 bd2f 8396 8fbf
00000640: 0487 6256 2270 8cbf a8de 1539 829d 85bf
00000650: c49b 656c 0ae7 8cbf 8f4a 8b7d 664b 90bf
00000660: f891 daaa dd3b 90bf 91d1 704e f3cc 8dbf
00000670: b4b1 c365 8f1e 8dbf c645 0d1f d0d9 8ebf
00000680: a2bc a79b afee 8ebf 903d b1e9 2975 8bbf
00000690: 99f6 5d68 5e08 90bf 55e0 71d7 def5 8fbf
000006a0: 91a1 fc11 2fcc 89bf f22c aa20 3ce7 8ebf
000006b0: 0833 1da2 024d 8dbf 1752 647f 7171 8ebf
000006c0: 8edf 9c4c c34f 8ebf 8c9e 2152 9d5e 8fbf
000006d0: 22de cbcc e913 90bf a97b fb9c 7d3c 8ebf
000006e0: 8e30 2fd2 f411 d73f c755 f39d 1b2f 7ebf
000006f0: 334f ee6b 39f7 c4bf 5f05 80c5 64c5 7abf
00000700: d4af 25be 8bb9 a23f 8af7 3d63 fc7d 6a3f
00000710: c472 047c d95a 82bf 9f58 32ec da7c 823f
00000720: bae2 a70d b207 9b3f c1d3 b6e8 8007 983f
00000730: 91f7 a8dc 2da0 8fbf b44c ea8d 5087 8a3f
00000740: 35b5 1383 296b 84bf 106d 106b fd1f 18bf
00000750: 9c41 1af6 51f3 70bf 1164 7a07 c414 4ebf
00000760: f7d5 b109 0228 69bf c536 0121 f0fb 88bf
00000770: dd0c 9474 f13a 7fbf d31f ea93 484e 7f3f
00000780: 5331 61f0 d8b9 5e3f 8f10 42e7 7805 783f
00000790: f675 5669 81fe 6f3f c36a c9a7 1191 8e3f
000007a0: 3764 6153 bd45 763f 17ef 3adc 589e 873f
000007b0: 3fab ba8c cbbb 82bf 6722 d639 2fa6 8bbf
000007c0: 88a7 ab5e 2051 8d3f f37a 891d 3184 95bf
000007d0: 9a5e bc21 cf85 58bf b5a8 78b8 24d5 603f
000007e0: c25b e73c c00c 623f 0446 fdd6 27db 5bbf
000007f0: e406 1237 2977 32bf 33ed 77a4 f866 543f
