data/model_fda3_beatles.npy (npy, 100432 bytes, 1 tensors)

array f8 [112, 112]
000000 54 b0 d0 15 c1 26 a0 3f a1 bf 92 17 1f 81 bd 3f
       0.031545671380030754 0.11525148702162237
000010 c5 ec ea 3c 6c 78 a1 3f 59 f3 df a7 b1 27 a6 3f
       0.03412187808631865 0.04327159094098105
000020 c9 14 28 57 35 86 b1 3f 57 28 eb db 38 d2 a9 bf
       0.06845410707326773 -0.050431992383508976
000030 da 05 9d aa 00 a5 90 3f c7 b9 ad 47 dc dd b1 bf
       0.016254434979833345 -0.06979157209364138
000040 cf 48 33 34 6b fd b9 3f 10 52 a8 b1 1a 3e 8f 3f
       0.10152311348363983 0.015255173250843718
000050 e0 2c ff 08 df a8 a1 3f 89 1e 46 19 01 0a 64 bf
       0.03449151024650532 -0.0024461766681190306
000060 89 ee 80 c9 d6 ac b2 3f 2a d4 e1 56 92 3e b3 3f
       0.07294981402895408 0.07517351742883763
000070 d4 94 9d 08 2c 86 ac bf 71 ff e7 d6 c1 77 bf bf
       -0.05571115117235484 -0.12292109963163768
000080 b1 76 b3 f8 c7 1a 9c bf 59 5c 69 5e ce e0 be 3f
       -0.02744591193628904 0.12061776928872926
000090 1f 0c 2b 79 6f f7 b4 bf fe 05 3a ef bc eb a9 bf
       -0.08190056522566679 -0.050626663401100544
0000a0 bc e3 3a 53 54 ed bb 3f c5 0b 6a 85 09 b6 a4 bf
       0.10909010917647682 -0.04045133355705092
0000b0 6b b2 86 52 3b 6b ba 3f a0 9e bc 2e 7b 7e a7 bf
       0.10319872631834819 -0.04588684983747027
0000c0 86 8f 41 34 0c 1d 8e 3f b8 22 c4 e3 e6 ad 80 bf
       0.014703841538171291 -0.008144191575881407
0000d0 60 62 2b 95 44 64 88 3f ce 75 d9 74 d6 71 6a bf
       0.0119099958441648 -0.0032281101801305617
0000e0 47 28 92 80 90 61 5d 3f 20 f3 b6 72 92 cf 95 3f
       0.0017932807116119041 0.021299637080789968
0000f0 02 73 4b 4d 9f c7 97 bf 1a 34 47 75 55 a2 96 bf
       -0.02322243603963426 -0.02210362938221886
000100 0f ff 03 df b5 36 99 bf 97 36 ae f0 4a b3 a0 bf
       -0.02462276624373688 -0.03261789501185069
000110 30 af a4 07 cc 9a 9f bf ce a9 10 a8 f0 da a0 bf
       -0.030863941160688302 -0.032920380130537205
000120 67 e5 11 1f f6 45 a1 bf 5d 34 cc cc 50 61 9e bf
       -0.033736888210976805 -0.029668104648454697
000130 ea dd ae ad 6e b7 9d bf ba b1 4e bc fe 79 a0 bf
       -0.029020051337026155 -0.03218074845003423
000140 80 ec ab 14 61 f1 a0 bf 6c 8f cc 76 fe 77 a1 bf
       -0.0330915773137912 -0.03411860656913643
000150 ae 81 aa 9e 54 ef 9f bf b7 5d cb 19 dd d0 9b bf
       -0.031186411079603786 -0.027163939189305455
000160 2d f4 df 97 30 f5 8a bf 24 be ea 7c fe 58 92 3f
       -0.013162974963046714 0.01791761052544251
000170 02 f9 19 af b8 db ab bf 82 d5 33 eb 29 dc 9d bf
       -0.054410716414155416 -0.029160170536632453
000180 c9 ad ea 15 15 34 aa bf ef ce b5 6b 8b 87 90 bf
       -0.051178606915836485 -0.016142061661823467
000190 55 09 89 11 33 f5 91 bf 18 6b 3a 01 02 ff 92 bf
       -0.01753692430998773 -0.018550902676547215
0001a0 47 d1 61 1b fc c0 9b bf 24 5b 6f 70 74 a6 a4 bf
       -0.027103366061468816 -0.04033244965073937
0001b0 3e 9e e7 d4 96 67 9d bf cf 4b 5e 70 69 83 92 bf
       -0.028715473885226432 -0.01807942150442071
0001c0 be 76 e2 b5 4b 60 9e bf 45 75 6b 09 f8 19 a1 bf
       -0.02966421411166808 -0.033401251935837574
0001d0 09 75 9a f4 48 57 99 bf dd 1d 5f bf d5 41 88 bf
       -0.02474702828350409 -0.011844320204445086
0001e0 51 68 74 fc b9 54 96 bf 57 6c e9 03 75 b4 98 bf
       -0.02180758097993191 -0.024125889171369454
0001f0 38 ad 79 00 ed 51 99 bf 22 80 a7 87 f0 b2 99 bf
       -0.02472658458138463 -0.025096662788087205
000200 b7 f1 45 e8 9a f4 9a bf be b4 31 86 51 b7 99 bf
       -0.026323719431717154 -0.02511336690479448
000210 d5 53 ac 0e ad 44 96 bf 0e bb 1d f6 bf dc 9c bf
       -0.02174635316903902 -0.028185843846070084
000220 81 da 04 58 5f 8a 98 bf 4a 4b 9f 56 25 d6 96 bf
       -0.02396534895634739 -0.022301276599886045
000230 00 1c 8f 9b 14 37 94 bf 23 cd c9 81 07 1e 9a bf
       -0.019741365427559998 -0.02550517778076967
000240 6b 02 93 97 33 f5 91 bf 00 b2 29 e8 8f 94 96 bf
       -0.017536932112081887 -0.02205109457502097
000250 2a 48 97 d0 54 af 94 bf da 78 8e b5 49 a8 9f bf
       -0.020200085860615648 -0.030915404993373176
000260 da 02 96 d0 ac 14 7e bf 10 45 3f 5d 82 78 a8 bf
       -0.007343936021584974 -0.04779441250105709
000270 60 5c e5 a8 9c 7b aa bf 4a f8 b7 77 1b c4 9d bf
       -0.05172433435171153 -0.02906840246395629
000280 c0 cc b8 53 db 04 71 bf ef 25 e8 2c ad b3 98 bf
       -0.004155022379154605 -0.024122911325354875
000290 01 16 0a 69 d5 75 95 bf 53 f8 76 2e 7e 00 9f bf
       -0.02095731214151009 -0.030275317750913477
0002a0 60 e2 de 14 32 a5 8d bf 8b 33 20 ec 45 3d 94 bf
       -0.014475241910859526 -0.019764988457655213
0002b0 c2 c9 f9 c5 66 b6 9c bf 42 ed 00 57 82 d1 a1 bf
       -0.028039556344489965 -0.034801552887496104
0002c0 67 b5 58 7b 64 05 a0 bf 01 65 19 bb 3c 93 95 bf
       -0.031291141564319606 -0.021069477958325148
0002d0 5b 31 db 21 6d 1e 90 bf 18 7a b9 b6 8a 70 9e bf
       -0.01574106711523036 -0.029726188089961608
0002e0 3f 72 37 1e c1 81 a1 bf ab d0 5d c6 c2 61 9f bf
       -0.034193072260425776 -0.03064636550648518
0002f0 ec d7 02 88 9b 91 9e bf fb 1e ad 38 e5 47 96 bf
       -0.02985232370038908 -0.02175863417076494
000300 ac 04 86 24 60 b4 a2 bf b6 d1 8a 58 e1 52 9c bf
       -0.03653240629047025 -0.027659913090887854
000310 50 75 47 11 c9 33 9c bf d1 41 bd 6b 4a c2 96 bf
       -0.0275412956997248 -0.022225535226711394
000320 0b 64 7a ff 03 4b 95 bf af 13 0f ad b5 c0 97 bf
       -0.020793974369187434 -0.023196066558529512
000330 47 0f ef 4c 53 63 95 bf bb 93 34 d9 ef 60 95 bf
       -0.02088670880381407 -0.02087759745804239
000340 97 d2 11 c6 45 ca 9b bf b9 06 9b 29 03 fc 94 bf
       -0.02713879605694788 -0.02049260083618407
000350 2c ba a6 12 8c 04 95 bf 6d d8 9d c3 e2 1a a0 bf
       -0.02052515853727692 -0.03145512235543966
000360 60 30 2e ac 97 56 e5 3f 0e 0a db 7b 64 3c a0 bf
       0.6668203699969233 -0.031710758322805885
000370 00 00 00 00 00 00 f0 3f be 34 b9 83 51 b7 a0 bf
       1.0 -0.03264860852196126
000380 e7 34 39 8e 30 4e e3 3f 3f ef 29 6c 88 cb e7 bf
       0.6032946374704381 -0.7435953247618058
000390 80 6b 5d c8 a1 3a c9 bf b7 dc e3 0c 1d 13 d0 bf
       -0.19710180552905499 -0.2511665941123726
0003a0 0b e5 e7 a9 41 fd cc 3f 44 66 01 b5 be 45 da 3f
       0.22647877498801736 0.41050689388575656
0003b0 3c 40 0c 81 31 94 af 3f 00 00 00 00 00 00 f0 3f
       0.061677500727569584 1.0
0003c0 e0 ca db 18 a8 45 b3 3f 68 67 d9 8d 7e cf da 3f
       0.07528162581347031 0.4189144501921107
0003d0 4c 5e b8 26 76 b8 e8 3f 16 1b 1b 82 be b3 c5 3f
       0.7725172764066399 0.16954785683466217
0003e0 a1 95 a0 ca 8d a1 d5 3f 42 9c 1b 82 2d 24 a1 3f
       0.33798546588726636 0.03347913945418003
0003f0 8e 5c b0 b2 c9 8d d4 3f 24 60 4a b4 be f6 5e bf
       0.32115404558266725 -0.0018898832651412867
000400 24 ab cd 16 c9 af db 3f af fa a4 f6 18 92 a1 3f
       0.43260409571546377 0.03431776057049284
000410 1d 74 5f da bf 6c d6 bf 66 13 a5 92 d0 e5 cd 3f
       -0.3503875381991877 0.2335758892096706
000420 42 80 fa 6f 74 4e bb 3f da 42 35 3f b6 83 c7 bf
       0.10666587575769973 -0.1837070282586158
000430 fd 46 3e 7a 24 8a b8 bf 38 93 c0 30 96 38 c5 bf
       -0.09585788711981631 -0.16578938847046643
000440 a7 87 d3 cb 60 e0 b9 3f 9a 0e 70 bc 03 84 c8 bf
       0.10107998825290442 -0.19152876568852123
000450 ce 66 c0 3e 91 78 a5 3f ce 02 27 7d 2f 80 a1 3f
       0.04193548098574028 0.03418110277880758
000460 16 44 bc e8 01 cf cf bf 44 89 3b 12 da 33 a5 3f
       -0.248504866257037 0.04141122314992399
000470 d4 10 d5 21 2b 0e c4 bf 17 18 e9 01 74 7a a0 3f
       -0.15668238784758748 0.03218424342462372
000480 bd c2 9b 03 bb 98 83 bf 22 1f d0 53 e0 e4 7e bf
       -0.009568654105778557 -0.007542492178806788
000490 a3 1c 8a 58 86 97 78 bf b3 76 a9 7c 42 97 8a bf
       -0.006003880299096628 -0.01298381751001485
0004a0 2e b5 f5 41 d6 d2 75 bf b7 b3 03 74 a4 fa 89 bf
       -0.005328022903410541 -0.012685093679886223
0004b0 24 df 86 89 c9 12 84 bf 0d 15 e5 8f 6e 78 83 bf
       -0.00980145884464851 -0.009507049337694551
0004c0 1c 8b c7 9e a5 58 98 bf a9 c7 3c bb ab 08 8d bf
       -0.023775661293153325 -0.014176694537670747
0004d0 1a 61 ae 64 26 cd 9c bf 19 04 e2 8c 28 50 89 bf
       -0.028126335043993846 -0.012359921264080186
0004e0 e8 ca 5d 52 99 6d 8a 3f 35 32 04 60 f1 63 a3 bf
       0.012904355836984974 -0.037871878596068255
0004f0 4c d7 81 f8 83 9e 87 3f b2 3d 88 27 84 4c a3 bf
       0.011532813092553738 -0.03769314749308296
000500 42 a2 74 f5 9f 6d aa bf 65 7d ae 33 73 61 a4 bf
       -0.05161762114795866 -0.03980598455313603
000510 5e 55 6a 4e 73 a2 a3 bf ac fe 53 d5 20 7a 88 bf
       -0.03834877330988705 -0.011951691160447218
000520 26 c0 64 8f db f2 a0 bf 53 4c 48 db 67 a0 a7 bf
       -0.033102856878372486 -0.0461456732920388
000530 b9 18 53 4c ba a6 a0 bf 4c ff 66 a7 31 51 ab bf
       -0.03252203160950402 -0.05335383575902472
000540 9f cb 13 9c b8 7e a5 bf 6d 71 77 42 d0 03 a2 bf
       -0.041982430508048944 -0.03518534480437805
000550 e2 30 fd 26 47 9c a8 bf 78 86 d4 e7 50 b4 a6 bf
       -0.04806730605068467 -0.04434445219000066
000560 61 02 2c 4e 3e 35 a2 bf bb d7 13 d1 17 0c a8 bf
       -0.0355624647545525 -0.04696726252761559
000570 5c a0 6a 63 f8 4c a1 bf 27 9c 48 ab 56 d2 a6 bf
       -0.033790361533932084 -0.044573505791327066
000580 de a9 aa 65 e0 07 a8 bf f2 26 8f 70 48 52 a5 bf
       -0.04693509331748989 -0.04164339422238851
000590 18 7e c2 28 ec 81 a3 bf 23 61 b1 ce ea 75 98 bf
       -0.03810060498767259 -0.02388731848290705
0005a0 97 a9 36 09 0e 1d a5 bf 89 3d dd 52 a9 78 a6 bf
       -0.04123729574651518 -0.04388932358289838
0005b0 45 7f a1 1e 9e 65 a7 bf c3 72 46 24 27 81 a5 bf
       -0.04569715618049356 -0.04200098340809213
0005c0 cd 59 04 fa a4 ae a7 bf 0d 48 39 02 f2 24 ac bf
       -0.046254306335118046 -0.05496937062402205
0005d0 f2 66 76 98 78 fe a5 bf f1 e5 12 46 73 05 a3 bf
       -0.042957085238595996 -0.03715095739739727
0005e0 f6 23 40 20 25 65 a9 bf 07 bc cb e4 78 bb a5 bf
       -0.0495998002880426 -0.042445924691371366
0005f0 f1 e2 a1 d3 ed 9d a3 bf 43 96 3d cb 75 c9 a8 bf
       -0.03831427772906249 -0.04841201883281745
000600 99 07 ad 05 bb 0a ae bf e0 86 10 9c 31 02 7f bf
       -0.058675617640360396 -0.007570451533895656
000610 57 9e e6 02 e8 c4 99 bf 71 69 a6 8d 4b b0 a3 bf
       -0.025165200402311374 -0.03845440010191482
000620 24 1c 12 c0 e0 3f a7 bf 66 2f 57 22 95 b0 83 bf
       -0.045409224935660825 -0.009614148245325981
000630 ca e6 48 08 52 af a1 bf 82 0c f8 9e e9 e1 a2 bf
       -0.03454071379787889 -0.03687982621706799
000640 21 35 11 04 7c cd 9e bf 6d c6 7f 53 fc f1 ae bf
       -0.030080735920184346 -0.06043995398785005
000650 9d da 0f 82 d4 8a a1 bf 84 71 c5 11 f5 62 a0 bf
       -0.034262314678860074 -0.03200498430189483
000660 e6 b1 b7 53 37 bd a0 bf 0e ef f4 56 5d 9e a8 bf
       -0.03269360444014406 -0.04808322607502023
000670 f5 d8 9f a9 a6 3b a2 bf 2c db e3 87 35 fe a7 bf
       -0.03561135120973972 -0.04686133655370947
000680 95 b1 d0 f2 89 7c a4 bf 6f 9d 84 51 41 41 a3 bf
       -0.040012656107452894 -0.03760723228543383
000690 7e 9e f1 d5 3e d9 a1 bf ed ec f0 74 1d e1 a1 bf
       -0.034860576263608486 -0.034920616650618054
0006a0 bc f4 4e d0 82 6b 9e bf 3a 6d 7a 57 50 f5 a1 bf
       -0.02970699688352306 -0.03507472102975347
0006b0 7b 85 ae f5 19 69 a2 bf 04 32 cc 41 6f b2 a1 bf
       -0.03595811008495794 -0.03456447294420076
0006c0 c2 10 61 3c a0 38 a7 bf a9 47 ab b3 d6 17 a3 bf
       -0.0453538964943916 -0.037291249687441415
0006d0 26 ec 31 79 3e b5 a3 bf 17 fb 30 89 af 72 a5 bf
       -0.03849215726310033 -0.041890607354153335
0006e0 05 8a f7 87 2a a4 de bf 2f 7b 17 ac 77 f1 92 bf
       -0.478769905834412 -0.018499250296254374
0006f0 70 22 bb 50 ac 70 c7 3f bd 65 e0 7b 3a a0 90 bf
       0.18312601034110143 -0.0162362230404136
000700 9c bc 60 5a 0a 55 d0 3f 8a 6c a2 a0 96 1e e9 3f
       0.255190456637999 0.7849839341537443
000710 a9 d3 f4 bb 0f 9d 9e 3f 88 b7 11 1a 3e 72 e0 bf
       0.029896016928620792 -0.51394562808649
000720 5f e5 82 00 69 8c c0 bf 00 00 00 00 00 00 f0 bf
       -0.12928497815100123 -1.0
000730 05 17 37 5b 41 53 dc bf 40 0f 55 b8 79 cc d4 bf
       -0.44258150012716185 -0.32498019219586993
000740 16 ca 0d 17 fd 5e d8 bf 9e 7c 45 86 48 aa e0 bf
       -0.38079764605859745 -0.5207865355004235
000750 ac cf 88 d0 a3 73 c3 bf 9f 92 83 6f 34 d0 cd bf
       -0.1519665497049777 -0.23291640706078895
000760 d6 3a 16 31 0c a0 c5 bf c2 ce 5b 3d 65 db 92 bf
       -0.1689467658693135 -0.01841505228999441
000770 8f 81 f5 a3 37 18 b5 bf b3 0f b8 46 10 07 b5 3f
       -0.08240077736764405 0.08213903166330176
000780 84 4f 72 dc a7 f4 c6 3f 8b 0e 16 4c 36 e5 92 bf
       0.17934129966726797 -0.01845249976532996
000790 50 41 9e e2 33 84 c8 3f 0d d4 c0 7e 91 bf d0 3f
       0.19153450551358242 0.2616924035858695
0007a0 0b 38 ba 82 bc b3 89 bf 9c d4 4e c6 fb 6c b8 3f
       -0.012549851169094258 0.095412956156752
0007b0 69 39 54 e4 04 47 ba 3f 76 d9 c5 f4 3d 06 aa 3f
       0.10264616560400487 0.05082887280416319
0007c0 b3 96 41 89 62 e8 cd 3f ed b4 e9 97 fd c3 a4 bf
       0.23365432455027743 -0.040557789606148954
0007d0 44 c6 82 23 93 8b bb 3f ea 51 a5 7d 13 dd b1 3f
       0.1075984918304807 0.06977960412525133
0007e0 a8 43 24 1c d5 40 c1 bf 95 ae a6 86 ed c9 95 3f
       -0.1347910296831547 0.02127810606331922
0007f0 52 b2 7b 90 65 25 b5 3f 30 ce 6b f1 50 79 9a 3f
       0.08260187890454887 0.025853409514594528
