data/model_olda_salami.npy (npy, 100432 bytes, 1 tensors)

array f8 [112, 112]
-0.33470947975812254 -0.13457068780282558 -0.35791739561797126 -0.18871966093640039 -0.027003070924049844 -0.1339580206564112 -0.09827340849142858 -0.07458392306919863
0.03002028254065331 0.011375997420053695 0.0213361874667159 0.0023346560659461483 -0.013673642401485508 0.0057147390005487285 -0.0271400204378206 0.023980434683549063
-0.009044234799521284 -0.07568838131061158 0.01607520725563736 0.007799772748520739 -0.022683184258647123 0.007059284411316508 -0.008707518398417291 -0.010746308071583608
-0.001145294238677348 -0.0036323983974387046 0.0035306693005944002 0.02684389503638391 -0.006972837947430949 -0.010094850076174071 0.0034011054963218467 -0.008417085993741094
-0.0015399022408078694 0.00039494072067560793 -0.00035236594938505244 -0.0007418585863592846 -0.00146455212637536 -0.0019008872179535022 -0.001016615867193095 -0.0012062113266022442
-0.000561201957746911 -0.0007823633731157254 -0.0025285764651428897 -0.0011179463794956045 0.023269709109392387 0.013192131739549527 -0.0011945096327660918 0.006203643275700139
0.0023571323315775463 -0.0048651472228609435 -0.0014639003623544513 -0.0009830672290826231 0.00172632345734382 0.0029277302783181397 -8.496312425116947e-05 -0.0015508158068484605
0.0014201513812474448 -0.0008146541253621666 0.0004783184833192672 0.0008253060205482102 3.1396252393097425e-05 0.0018146471696547067 0.0012446917203087849 -0.002393932619963923
-0.0016575089643884504 -0.0002631733173707963 0.0006185862412726556 0.000803720660027592 -0.00011713510418792638 -0.0008715001449191769 -0.0011438706112892095 -0.00021197320187740144
0.000317347473057977 0.0009763872035963828 -0.00039192043631244627 0.0010802917437037773 -0.01097321075106261 0.01249444688641055 -0.011559732741961412 -0.0008990247187259172
0.0005652748438052549 0.0006810269655101319 -0.00015968482914939346 -0.000730556326856635 -0.000640242238363527 0.004435616057903271 0.002484628943728434 -0.004299184987570953
-0.0013731517878097512 -0.0019724021422491186 0.002629125186473357 0.00034830259449917714 0.0006938166141694263 -6.666642353188346e-05 -0.002065394842365842 -0.004622572904936446
-0.0018829972002687215 0.00010963079997671212 -0.002557187822604308 -0.0018332006398175432 -0.0007619842083496113 0.0007993999275350025 -0.0005163517965800834 -4.0624263428362216e-05
0.0011056908158390783 0.003570176953429445 0.0008402555243057799 0.0015496897751729355 -0.08038337047354358 -7.550538756357162e-05 1.0 -9.34878521582408e-06
-1.0 -0.48157184543110965 -0.8011637733828818 -0.5556682578301837 -0.21549437546989583 -0.2886915833261164 -0.2539367671278153 -0.2276559715534076
-0.019345687321717566 -0.0026301551799451997 -0.016401016176931342 -0.020671922139270466 -0.07893343474143243 -0.028119574208899326 -0.07819108380476256 -0.05952266050684484
-0.005924952782885569 -0.032981240717326395 0.009961837907739381 -0.01614437793947636 -0.042114776003898624 -0.04493466131506393 0.03236784074981965 0.02314558499576077
-0.012614501896083301 0.03809554727399327 0.027610952557505956 0.050081003768846125 0.055877211198382966 0.019999537053431736 0.06820005365573593 0.03098185664936486
0.0006287702877361749 0.002423519802736487 0.0008783234174589229 0.002235760721254574 0.0017514855700614086 0.0016084482175120418 0.0032981873851704816 0.0007379169546907067
0.003932446785945694 0.003401088076069454 0.002421202939121696 0.00342476066226818 -0.0014754733537867654 0.0009093151057885028 0.006898190737738051 -0.001185526047983331
-0.006348758079364846 0.0011611286514831922 -0.0033419245989939252 0.0007917490187310832 -0.0010177005355787253 -0.0017153118039293827 0.0011852413093091302 -0.001811029964207453
-0.0017835510136174422 -0.0005009670111996327 0.0013826931276367765 3.704993275162767e-05 -0.002183681945917652 -0.0004878870329331439 -0.0012048081552035132 -0.00036232985996968275
-0.0008727284433539911 -0.0010966586307533314 0.0006053806835076093 -0.0009479902121321528 -0.0008463431734761389 -0.00031237269644584977 8.213834859269498e-05 0.0004920055967785096
-0.0005394614027117117 0.0008042919263186447 -0.0015152657393405098 0.0005210102962493869 -0.0008389773571159456 -0.012329029499070228 0.005738681087578019 0.010799701453070002
0.005753609215129944 0.008118350651943334 -0.0029504099646741415 0.0019594521425001315 -0.0033543001120190617 -0.0026788481656017183 -0.0005549441502261957 -3.703633329979281e-05
9.810096255200003e-05 -0.0003755457474507541 -0.0006201210293873418 -0.0006336995986613301 0.00037884880017835976 0.001688506244573859 0.001586258915291688 0.00035623529336866177
0.0009921691720950223 -0.0007845196756282628 -0.002275804554168095 0.0008230748161402211 -0.0004996765058244392 0.0002815952859434676 0.001885029743473694 0.0020571914610680478
-0.0007446138188759004 -0.001204685688659164 0.0006367559993577832 0.003691088861034204 0.14902555731860956 0.0002452961436787341 -0.29036433242102055 0.0002234370538432414
0.0033779150557042455 -0.040186726075534786 -0.00043981139082475046 -0.03542261081357155 -0.021439024162819304 0.005129354505402137 -0.027895788468506696 -0.023336290494261808
0.01682296624614322 -0.0629802034182202 -0.010062162161787997 -0.03593260798922798 -0.02124215861822881 -0.011764410927638996 -0.041120381529512244 -0.003908230536690258
-0.02545988022290412 -0.011572434034447174 -0.01597118135418924 -0.020320108843329496 -0.003593996478993961 -0.02616606270002863 -0.009152086547605324 -0.0007062291003596239
-0.006142431915444149 -0.005589564935199838 0.0026446829085598903 -0.01026789719043084 -0.00862436693728893 -0.018274400308276328 -0.004560061006350823 -0.0147638244157895
00000000: 553a 4e4f e16b d5bf a582 8ebf 9c39 c1bf
00000010: c750 365d 1ee8 d6bf 19c2 ea41 f727 c8bf
00000020: 7d9c 0a6a b1a6 9bbf 75ca e052 8925 c1bf
00000030: a581 8933 7228 b9bf 0bbc 6396 ee17 b3bf
00000040: d046 ea0e a3bd 9e3f c630 0787 4c4c 873f
00000050: 3240 904d 27d9 953f afb2 6bee 2020 633f
00000060: c6df 7337 ed00 8cbf e5ee cc91 5668 773f
00000070: 20d9 c5f0 97ca 9bbf 85bd d6ba 538e 983f
00000080: aa47 73a5 c885 82bf a58f 6a52 5060 b3bf
00000090: faed c1e5 0476 903f 8d24 f08d a7f2 7f3f
000000a0: df78 3dba 423a 97bf 6053 e03a 32ea 7c3f
000000b0: ed10 0156 3fd5 81bf 3ff4 c20d 2902 86bf
000000c0: 85a3 2953 b6c3 52bf 465c 560a b1c1 6dbf
000000d0: c8ba baa5 59ec 6c3f d235 1d4d f77c 9b3f
000000e0: e0c4 1cef 8c8f 7cbf 4945 7bd7 9bac 84bf
000000f0: a1f5 0f9c a2dc 6b3f e8de 9028 fa3c 81bf
00000100: 4005 da70 d13a 59bf a641 aa7a 01e2 393f
00000110: 2cc9 943a b817 37bf 370a ef2e 294f 48bf
00000120: f5c2 1bdf c6fe 57bf edc2 ce1b e624 5fbf
00000130: 0677 bdf9 fea7 50bf c1df c98c 37c3 53bf
00000140: a664 0907 b463 42bf 7182 f18c f0a2 49bf
00000150: a6a6 2427 cfb6 64bf 6612 dfc8 0151 52bf
00000160: d9f7 72be 03d4 973f df4c 16f3 7904 8b3f
00000170: 5bdf adf3 2292 53bf a14e c3cf fd68 793f
00000180: 2cd7 d8c8 434f 633f 260b 6603 7aed 73bf
00000190: 2a1c 940b 0bfc 57bf 97c2 5066 481b 50bf
000001a0: 4cba a9b2 b948 5c3f c915 8039 e5fb 673f
000001b0: 3373 2f5c c745 16bf 02cc 0acb 9768 59bf
000001c0: c08e 38ef 8b44 573f 20c7 b969 d0b1 4abf
000001d0: 2991 303e da58 3f3f 5f7c 082f 2b0b 4b3f
000001e0: 1a31 9904 ef75 003f 7327 d68f 2ebb 5d3f
000001f0: 2477 de8e 9d64 543f 3367 f8c9 709c 63bf
00000200: 543c dfb2 1828 5bbf 9ccf 91ca 503f 31bf
00000210: 61e0 87d6 1345 443f dc91 97f9 1856 4a3f
00000220: f72f 4dc4 cdb4 1ebf b53a 794f ac8e 4cbf
00000230: 9528 72b7 bdbd 52bf 1373 7bf0 a3c8 2bbf
00000240: fb2d ac04 35cc 343f ec6f c88d 87fe 4f3f
00000250: d879 e374 55af 39bf 05ef 656d 12b3 513f
00000260: bfa3 766a 1f79 86bf 81e7 1146 b096 893f
00000270: f827 9e10 a1ac 87bf 3fd7 f2e1 9075 4dbf
00000280: 179a d37b de85 423f 8425 b445 de50 463f
00000290: c0bd db3c 22ee 24bf 99e5 0fc4 59f0 47bf
000002a0: a946 d6bc bdfa 44bf c23b 809e 142b 723f
000002b0: a6d2 ca01 a55a 643f 60b5 bcae 059c 71bf
000002c0: 817c 5981 6a7f 56bf ccb3 4156 6d28 60bf
000002d0: 98ff 2cd6 ac89 653f bdea a240 8cd3 363f
000002e0: 1a67 69d5 27bc 463f 1914 6c6f e879 11bf
000002f0: 8027 a469 72eb 60bf bb84 3377 1eef 72bf
00000300: 9bf7 30d9 dcd9 5ebf cedc 58cd 32bd 1c3f
00000310: 438a 2bc2 cff2 64bf 92a6 e132 0009 5ebf
00000320: 188c a1a0 fcf7 48bf 1cb5 c845 da31 4a3f
00000330: 3371 2e0a 79eb 40bf 2316 1310 7f4c 05bf
00000340: 695f 2f79 9a1d 523f 2a6f 3028 343f 6d3f
00000350: 177c a3ff 9288 4b3f cde2 cfb9 de63 593f
00000360: b67c 532b 0194 b4bf 07f1 57ae 14cb 13bf
00000370: 0000 0000 0000 f03f 4ab4 9c41 179b e3be
00000380: 0000 0000 0000 f0bf 4e43 b3b7 12d2 debf
00000390: fe6b ad35 22a3 e9bf 38ca 59cc 08c8 e1bf
000003a0: 25bd 8ed7 5195 cbbf 4108 4143 ec79 d2bf
000003b0: 4638 84ff 7f40 d0bf 96ce 47b4 d423 cdbf
000003c0: 5730 7619 5bcf 93bf 908f 66cf d58b 65bf
000003d0: 5e83 6790 6dcb 90bf 986e 2236 052b 95bf
000003e0: c780 c648 fb34 b4bf 012e 6bae 60cb 9cbf
000003f0: 7ebe c7b3 5404 b4bf dfe0 7e10 c179 aebf
00000400: 3be7 ec66 c344 78bf f95b 86cc eae2 a0bf
00000410: 2ea2 2c40 df66 843f 8ca8 0edd 2688 90bf
00000420: b8ef 3a63 1190 a5bf ab2d 9c09 ad01 a7bf
00000430: 6bdb ec82 8492 a03f 1611 6aea 79b3 973f
00000440: 96c4 cac8 a1d5 89bf e77d 5473 4281 a33f
00000450: 11cc fba8 0b46 9c3f 7a14 ada2 37a4 a93f
00000460: 81a2 6015 f09b ac3f 668a 5136 c27a 943f
00000470: c36d 0908 8f75 b13f 6d43 5034 b5b9 9f3f
00000480: 3772 48e9 819a 443f 1f22 6849 7dda 633f
00000490: 49d6 382d e9c7 4c3f 6237 bee5 ba50 623f
000004a0: 7185 8a4f 43b2 5c3f e11f 751f 525a 5a3f
000004b0: b487 92de cc04 6b3f 81fb 0198 182e 483f
000004c0: 551f 6c25 781b 703f 4351 d741 99dc 6b3f
000004d0: a4a1 186e a1d5 633f 3870 5061 3e0e 6c3f
000004e0: b194 3d73 952c 58bf b73b 1052 e3cb 4d3f
000004f0: b227 ecf9 4641 7c3f fc7e b2e6 746c 53bf
00000500: f22c 23c5 2701 7abf a593 6965 2006 533f
00000510: acd2 771b 8660 6bbf 1902 3012 acf1 493f
00000520: 689c 1da1 8bac 50bf 53a2 6b06 8a1a 5cbf
00000530: df92 532a 436b 533f f465 f99d 02ac 5dbf
00000540: 220f 8d51 c138 5dbf 9e1c f976 6a6a 40bf
00000550: eee2 de70 6fa7 563f 892a f3fe c16c 033f
00000560: d6d4 5c51 83e3 61bf a949 c0d9 62f9 3fbf
00000570: e8ad f8e7 54bd 53bf ad8a 20e6 e2be 37bf
00000580: 57e5 ad0f fa98 4cbf 5eb5 0d3d b8f7 51bf
00000590: 53b1 5f1e 4dd6 433f ede9 a07a 5110 4fbf
000005a0: 9eb5 2920 a4bb 4bbf f023 f183 be78 34bf
000005b0: e6b8 7415 3688 153f 285f 4bf9 3d1f 403f
000005c0: d749 828a 54ad 41bf f98d 8ec2 e35a 4a3f
000005d0: ccd4 e432 7cd3 58bf 7267 7517 8d12 413f
000005e0: 407d cb27 da7d 4bbf 445e eb53 f63f 89bf
000005f0: 7b3e 7e79 7181 773f 5547 6164 271e 863f
00000600: ab6e 9bb6 1891 773f 8365 6194 5aa0 803f
00000610: 53b1 db49 752b 68bf d3fb d7db 440d 603f
00000620: b8e3 0629 7a7a 6bbf 1204 64a8 f3f1 65bf
00000630: 0d51 f87c 352f 42bf e60e e8b8 ee6a 03bf
00000640: f577 16b4 71b7 193f a67c 15b4 9c9c 38bf
00000650: 874b 38c5 f351 44bf fe5f 9f86 dbc3 44bf
00000660: 5410 f734 07d4 383f 59ce 5ec6 1baa 5b3f
00000670: 18b3 818a 40fd 593f 3175 48ef a258 373f
00000680: 8b1e 5c89 7541 503f 2242 c92c 07b5 49bf
00000690: 054f 3b44 b5a4 62bf 1d19 70b5 73f8 4a3f
000006a0: e3e5 2320 975f 40bf a0c4 388b 6274 323f
000006b0: b8c9 6946 63e2 5e3f a72f 8041 3eda 603f
000006c0: 6b43 0700 4666 48bf ecbf 9f68 d1bc 53bf
000006d0: 1fcd ac18 7fdd 443f 0f92 3b3e c63c 6e3f
000006e0: 14ce 79fb 4413 c33f 772f 39ea 6213 303f
000006f0: fc14 eb47 5495 d2bf dfa5 8dad 4d49 2d3f
00000700: a85d 2c56 00ac 6b3f 5599 74c4 5a93 a4bf
00000710: 557a 3d8a cfd2 3cbf 5e69 f795 e922 a2bf
00000720: 05c3 8c8e 1cf4 95bf 3dcc 9a9d 8402 753f
00000730: 3c69 acac b690 9cbf c865 eef1 77e5 97bf
00000740: 4245 6527 0a3a 913f e807 fa79 781f b0bf
00000750: f7a0 4b8b 789b 84bf 28f2 5840 c265 a2bf
00000760: 0f38 3f22 81c0 95bf 30fe 8681 f017 88bf
00000770: 7f91 bc0b bb0d a5bf 3dec 71a5 1302 70bf
00000780: 1d78 aba3 2712 9abf f85c b4cd 49b3 87bf
00000790: 5200 61d6 bf5a 90bf a9a8 bb6b cbce 94bf
000007a0: 28e0 da2a 2871 6dbf 7e30 3fbe 46cb 9abf
000007b0: ef08 4c43 54be 82bf 6c0e dc71 4724 47bf
000007c0: e9a6 1d83 ce28 79bf 2e61 8769 15e5 76bf
000007d0: e2be 3753 4daa 653f 727f 0dd5 5507 85bf
000007e0: 6d0c 8eef a6a9 81bf 2355 b63e 86b6 92bf
000007f0: 4c9c 3d0e 92ad 72bf 83d4 3cf8 7e3c 8ebf
