data/model_olda_beatles.npy (npy, 100432 bytes, 1 tensors)

array f8 [112, 112]
000000 69 ae e9 45 36 8e b8 bf fb e5 83 06 45 8c c1 bf
       -0.09591998297553918 -0.13709318941236845
000010 be d1 d8 1c 78 88 af bf df 30 47 c7 53 ea b0 bf
       -0.06158805229316354 -0.0660755502241872
000020 62 d6 cf f4 0c 00 b9 bf 30 d0 0e 31 7b c1 ab 3f
       -0.0976570222554414 0.054210519541271984
000030 b7 e9 01 c8 94 ce 94 bf 24 c2 44 1f 1b bd ac 3f
       -0.020319294650542576 0.05613026386925338
000040 59 54 3f 70 f2 8c b4 bf 43 c0 1f 1b 0c 7a a2 bf
       -0.08027568092741556 -0.036087396918333535
000050 f8 6a a6 d3 93 68 57 bf 2c 50 3b fc c9 ab e8 be
       -0.0014287418003734991 -1.1764073753729806e-05
000060 51 f0 0c 6f 64 f0 b4 bf 06 57 f6 01 02 1c a1 bf
       -0.0817930956954467 -0.03341680787995753
000070 06 1a 6f fd 60 07 bc 3f 31 1a 66 22 a9 d1 ad 3f
       0.10948759257653515 0.05824020905406647
000080 50 67 1f cc 18 1e a6 3f 7c 14 73 0c 41 5c a1 bf
       0.043198370854681145 -0.033906967897146395
000090 d1 76 91 d7 1d a9 99 3f 4b 27 bc 5d 68 20 b6 3f
       0.025059191019287056 0.0864320019574311
0000a0 7b 44 47 91 7f 71 bd bf d7 82 2d e4 f2 df 9c 3f
       -0.11501309677920972 0.028198046852938
0000b0 98 63 54 4d a9 74 ad bf ba 91 e9 49 2b 8c 9c 3f
       -0.05753068036046399 0.02787845266938558
0000c0 c5 0c b7 d3 61 54 96 3f 34 c2 ed f1 fb 3a 98 bf
       0.02180626730638548 -0.023662506714972234
0000d0 1c 27 65 2c b8 a7 92 3f 21 49 57 c9 16 79 a2 bf
       0.0182179238411556 -0.03608008582854639
0000e0 b5 f6 92 cd a6 b3 8d 3f 8b fb 9e a1 39 c1 7b bf
       0.014502814434645609 -0.006776070711508884
0000f0 cd 0d b2 ca d1 af 83 3f 9c 44 a6 f3 ab 6a 85 bf
       0.009612692831303083 -0.010457366345493484
000100 c5 cf d0 6c 17 92 5d bf 20 ea 30 ea 27 84 76 3f
       -0.0018048504600871468 0.005497127454015899
000110 80 03 9f 36 56 3a 6b 3f 65 4b 68 8c 63 59 82 3f
       0.0033237155775797667 0.008959558222192585
000120 ef c6 c3 73 f8 55 79 3f 84 0d 06 f6 8b 85 7b 3f
       0.00618550349848744 0.006719156954548725
000130 d8 a7 03 89 46 98 70 3f 90 4c 7c 30 41 2f 75 3f
       0.004051471260234828 0.005172018667298009
000140 71 62 a6 a8 df b1 79 3f 54 d0 b1 3d 31 a2 7c 3f
       0.0062731491729200875 0.006990616176256809
000150 0d d8 fa 5f cb 0a 7c 3f 51 dd f2 5a b9 e3 30 3f
       0.006846231873785425 0.0002577140357504409
000160 bf 09 fc 94 34 85 71 bf 80 8e 54 b4 4f 2a 96 3f
       -0.004277425192187711 0.021645779973495483
000170 f0 f2 82 19 83 23 86 bf 67 c5 44 3c bf 0e 9b 3f
       -0.01080992147068957 0.026423442891603168
000180 46 3e db f7 ba a8 35 3f 55 b4 36 12 97 85 97 3f
       0.0003304916825585851 0.022970543371844638
000190 cb f4 a1 1d df 70 8c 3f a5 3e 66 00 d9 c5 8c bf
       0.013887160388771488 -0.014049239468277472
0001a0 71 8c 5d 69 ee ee 72 3f 9a d8 18 61 7a 6b 75 bf
       0.004622393889664443 -0.0052294521752199955
0001b0 1d fe 50 4a f8 df 62 bf f7 14 f8 f1 99 9e 70 3f
       -0.0023040627879991186 0.004057504032521245
0001c0 05 90 c7 09 9c ae 6d 3f b1 43 7c 7e 82 de 48 bf
       0.003623299371826152 -0.0007589471033232401
0001d0 00 9d f0 b1 01 52 70 3f 7f 44 67 40 54 28 76 bf
       0.003984457608601888 -0.005409554584233977
0001e0 29 2c a6 07 70 c6 74 3f 0c d0 dd 5a ad f0 37 3f
       0.005072057358471085 0.000365297625527506
0001f0 b7 d6 ba 90 56 ef 6b 3f 89 75 a6 42 cf ed 5d bf
       0.0034100237588415533 -0.0018267177607421434
000200 40 e8 f6 7e 87 37 71 bf 6d 7b f8 dc 59 12 64 bf
       -0.004203347474169006 -0.0024501567020389
000210 26 fb 9d ec 2e 2c 4f 3f ad 70 86 4b cc 06 78 3f
       0.0009513119814384726 0.005865858104155003
000220 bc 1f ad 85 db f7 49 bf e8 3c 98 5d 4d 8d 12 bf
       -0.0007924863706216738 -7.07701177804391e-05
000230 34 e6 cf 6b 7a a8 77 3f 56 2b 98 e2 88 84 70 bf
       0.005775907714445295 -0.00403264494662888
000240 45 78 0b 40 53 6d 75 bf e1 fa ca 2a c9 9f 67 3f
       -0.005231213756557611 0.0028838089986885506
000250 2c b0 77 7c 54 33 33 bf fb 0a f8 a8 05 0b 2b bf
       -0.00029297650004767267 -0.00020632213680479142
000260 6c 6b 7e e9 46 3d 79 bf 85 53 84 54 1c b7 7c bf
       -0.006161953926404045 -0.007010565437913456
000270 e6 e2 cf 8f e2 34 a6 3f 96 f4 1f da 09 d3 92 bf
       0.043372230582411395 -0.01838317293003352
000280 23 f3 a4 7b 5e c1 a2 3f 6e 6b fd 77 51 60 8a 3f
       0.03663153895693074 0.012879024957944653
000290 1a 87 4d 56 08 c1 82 bf 4b 7e 9c fe 5f 96 8c bf
       -0.00915724290252089 -0.01395869251024275
0002a0 61 b0 56 94 85 76 59 bf 80 f2 ab c2 d3 14 76 bf
       -0.0015541367041391962 -0.005390956105426725
0002b0 22 87 fb 72 d9 77 80 bf 46 05 52 14 f9 8f 77 3f
       -0.0080410946097263 0.005752537695231047
0002c0 de c2 f0 e5 6a 48 86 3f bc 23 9b b3 62 59 8d 3f
       0.010880313055254328 0.014330645662441792
0002d0 c6 c8 3a 45 93 d2 45 bf 05 ba 86 df 09 65 7f 3f
       -0.0006659716695678545 0.007664717261305136
0002e0 91 13 05 41 8d d9 89 3f b3 02 8e 0b 49 9a 6f 3f
       0.012621978327510582 0.0038577486670308913
0002f0 2d 9d a0 32 a1 45 63 3f f9 c0 f9 1a b9 34 23 3f
       0.002352537955647846 0.00014652976595953113
000300 cc 4b eb 5f 9a f2 47 3f f1 a3 80 67 66 10 72 3f
       0.000730824831260407 0.0044101715248325716
000310 62 f2 cb 97 0a 04 42 3f 2d 27 fd 18 05 89 6f 3f
       0.0005497981761376054 0.003849515873217599
000320 ac 6c af 83 67 72 67 bf 01 f3 a2 28 e6 2b 3a bf
       -0.0028621694341218386 -0.00039934510335708223
000330 47 ad f8 5a 6c 7a 44 bf 79 2c 86 43 f4 3f 70 bf
       -0.0006249455527202263 -0.003967241435371632
000340 df ab 94 63 22 9a 42 3f 34 30 d3 a1 1a 36 60 bf
       0.0005676906504609134 -0.001978923812748357
000350 12 f6 33 08 0f 2a 6d 3f 00 6a aa 7e f7 5c 63 bf
       0.003560094222506257 -0.002363665951020666
000360 19 0b d8 3f d5 59 e3 bf db c0 7f 7a 8f 9e 7c bf
       -0.6047159430457639 -0.006987152541100462
000370 00 00 00 00 00 00 f0 bf 3d 31 1b 49 22 2d 7e bf
       -1.0 -0.007367261817943946
000380 00 00 00 00 00 00 f0 bf 16 47 26 32 16 74 ed bf
       -1.0 -0.9204207400782447
000390 7b 52 60 7b 5f e8 e1 bf c7 1d 1d 6e 63 46 e4 bf
       -0.5596158418362188 -0.6335923338564776
0003a0 ec 02 23 8e a3 5e e0 bf 6d 8c c6 71 bd fd d6 bf
       -0.5115525985821399 -0.3592370616044665
0003b0 84 f1 ca 4a 8a 70 b7 3f 38 29 59 a7 9a b6 d1 bf
       0.0915609772300226 -0.27677027075391747
0003c0 5b 57 b6 aa a9 fb a6 bf ea 76 64 e4 ed bc bc bf
       -0.04488878449335117 -0.11225783182132046
0003d0 55 dc 98 fa 75 03 d0 bf 3e 0e 9f 37 36 57 99 bf
       -0.2502112338292524 -0.024746749062400257
0003e0 11 78 2f d7 6c 61 b2 3f a8 6f 37 0a e9 67 ae 3f
       0.07179908994245944 0.05938652276719775
0003f0 09 73 a8 3e c8 4e 7d bf 3a ab 94 bb 52 c4 b9 bf
       -0.007155210691533361 -0.10065190391166548
000400 20 10 40 f5 78 6f bc bf fb 7c 42 76 8d 7a c8 bf
       -0.11107593524508319 -0.1912400081100499
000410 fe aa 8b af 4f 9c 8a 3f cb c0 43 bb 5d 78 c8 bf
       0.012993452591634643 -0.19117328304083112
000420 06 fd 29 0d ea 6d af bf 6a ef 4f 3f 4b 11 b4 bf
       -0.061385454279838256 -0.07838888450345186
000430 9a 6b d0 07 03 b1 b5 bf db bf 91 b9 e8 eb ae bf
       -0.08473223629736851 -0.0603935934567514
000440 51 f3 ff 50 11 62 c1 bf be d9 e5 6a 12 7c c3 3f
       -0.1358052869326465 0.1522238752329041
000450 84 25 60 ab 5c 50 b0 bf 94 df 51 18 d8 73 b5 bf
       -0.06372622665380417 -0.08379889100785781
000460 c5 ec af e3 45 ec b8 3f 13 bb 8c 8e ba 13 a6 3f
       0.09735523995179836 0.0431192683230305
000470 9e e5 d4 d3 df 68 83 bf 97 3d 2d ca 6d 9c c1 bf
       -0.00947737565239742 -0.13758633014593322
000480 6f 1a 35 4e 54 8b a7 bf f2 68 18 cd 66 02 a9 bf
       -0.045984873339467984 -0.048846447502187376
000490 b7 c2 67 0f b5 52 a5 bf c6 c4 90 dc 5c c9 a6 bf
       -0.04164663136532936 -0.04450502579164488
0004a0 bd a4 0e 60 a9 00 a6 bf e7 42 ce 3a d2 46 a5 bf
       -0.04297379777501351 -0.04155594795077438
0004b0 3a c9 ae 0e aa 7e a2 bf 09 dd 60 07 a0 db a3 bf
       -0.0361226218150414 -0.03878498163288142
0004c0 63 31 03 d8 09 1c a3 bf f5 a0 74 ea d2 cd a7 bf
       -0.037323291414937974 -0.04649218666082958
0004d0 84 b4 8d c1 d7 9b ab bf 59 08 47 20 f3 20 a6 bf
       -0.053923361184254254 -0.0432201363469324
0004e0 e6 84 1e aa ed 17 a5 3f d1 d8 51 b0 bb 6a 80 3f
       0.04119818402910784 0.00801607734522883
0004f0 67 4e bd 04 9b 83 a7 3f cb 6b 72 ab 74 2b a1 bf
       0.04592594559531165 -0.03353466599329343
000500 26 4c 75 24 bd aa 87 bf fd 1c 6d bc 5d 38 98 bf
       -0.011556127238384017 -0.023652519822715757
000510 a2 12 cc bb 27 fc 8e 3f 20 2e a0 c5 56 7b 97 3f
       0.015129385393728715 0.0229314382668645
000520 12 86 66 f4 e0 9f 86 3f af 57 1a e8 b0 e4 80 3f
       0.011047131975661127 0.008248693545549772
000530 a9 b2 e7 fc be 33 81 3f 39 bb c3 0a f2 0a 79 bf
       0.008399479001093129 -0.006113954045061481
000540 c2 17 77 c1 22 7c 56 bf 6e e7 83 9d 98 5a 61 bf
       -0.001372369710098451 -0.0021183949248752476
000550 13 28 80 e2 fd fd 8a bf d1 c5 2a f1 8f ad 75 3f
       -0.01317976329302798 0.005292475007693879
000560 9a d6 e8 d0 a0 49 7f bf 93 8e 68 94 b3 9c 46 bf
       -0.007638576686579102 -0.0006900669912437034
000570 03 c0 d1 07 46 2a 8a bf ed 36 cd 38 46 7d 4e bf
       -0.012775942910792542 -0.0009304612045555029
000580 68 9e 12 fd 58 c1 53 bf 1a d8 0a e4 5e e3 7e 3f
       -0.0012057656315763946 0.007541056315565365
000590 b2 d7 ae 8f ab 4c 80 3f 7f 1e e4 fb 9c 9f 80 bf
       0.007958736727100877 -0.008116938054185894
0005a0 d9 b0 46 69 ca 43 87 3f ef b8 77 ec 78 9e 62 bf
       0.011359769189617829 -0.0022728311339427136
0005b0 3e 3e b7 72 d2 9b 41 3f d8 52 3e 11 57 9b 74 bf
       0.0005373742655425185 -0.005030956370224181
0005c0 5e a5 3f fa 11 7c 67 3f 8a 16 9e 27 be 16 6c 3f
       0.002866778480883055 0.003428813358314302
0005d0 01 61 6f 6e 90 fe 70 bf b4 88 c4 34 37 1d 6e bf
       -0.004149021325212 -0.0036760404820067264
0005e0 c9 f2 ab a8 46 90 96 3f f1 b9 26 64 22 b5 b2 bf
       0.022034744305517138 -0.07307639069652062
0005f0 55 73 f6 36 3d ae 89 3f 18 97 e1 fe 90 ff 8b 3f
       0.012539365997150812 0.013671047952992718
000600 c8 ad 5e 32 53 52 a4 bf 7d 9f 62 b6 fe 29 8e 3f
       -0.03969058980814172 0.014728536549526211
000610 3e 4f 4a 99 e5 20 9a bf 72 88 ed 52 7e 68 93 bf
       -0.025516116601081544 -0.01895329838897237
000620 51 08 c2 57 9c 21 9a 3f 91 a0 9d fd 00 f8 85 3f
       0.025518839699096244 0.010726936092126745
000630 86 4c be ba 7d c1 71 bf a7 0f 04 cf c7 5e 98 bf
       -0.004334918146827188 -0.02379905892395553
000640 84 51 a3 72 f7 b8 7c bf d1 ce 48 b4 28 3e 91 3f
       -0.0070123353891243835 0.016838680270850063
000650 c2 e6 c0 9d 74 5a 8c 3f e4 b2 dd 54 2c 68 43 3f
       0.0138444052355341 0.0005922523939552973
000660 ad 74 ca f9 2a ba 88 bf e4 b5 59 ed 88 0b 8b bf
       -0.012073837039958535 -0.013205594771728842
000670 e4 61 e0 e5 65 61 70 bf 85 aa b0 9a 4d 28 94 bf
       -0.0039991360081548 -0.019684994284185926
000680 32 5c da a3 06 6c 6d bf c2 6c e8 01 7c df 44 bf
       -0.0035915498436440924 -0.0006369929795399176
000690 ba f5 81 c6 6c 32 6b 3f 5f 51 da 55 ee c6 3d bf
       0.0033199429054195624 -0.00045436209425388745
0006a0 a2 40 59 6a e0 8f 81 bf 9b 60 75 18 80 8d 71 bf
       -0.008575204129698758 -0.004285335896689581
0006b0 a5 e0 66 e5 8a 35 77 3f 27 42 67 ee 57 aa 56 bf
       0.005666296542067216 -0.0013833864883176035
0006c0 eb 1e 15 ed ed b1 88 3f 2e 8d 62 22 a7 e8 5a bf
       0.012058123395618256 -0.0016423828288133035
0006d0 9d 96 f7 87 14 f5 61 3f e5 de c5 c3 94 80 7a bf
       0.002192058658453912 -0.006470280754335288
0006e0 68 b0 74 80 cb f5 a2 3f 35 fe 9b f5 ef 80 36 3f
       0.0370315164858262 0.00034337862381048366
0006f0 fc c6 22 df 9e ad c3 3f fb 78 b2 a2 e9 dd 3f 3f
       0.1537359799891006 0.00048624948494503634
000700 36 32 73 62 b6 ca 80 3f 7c 0d 97 f7 9a 70 e6 bf
       0.008199143294768434 -0.701245769094768
000710 00 00 00 00 00 00 f0 bf 92 b6 93 7c b2 c7 c0 bf
       -1.0 -0.13109427531110335
000720 9a 91 9f 75 f2 bd b9 3f 93 2c 98 2e bb 5b d6 3f
       0.10055461284316039 0.34934882688748664
000730 c5 6f 45 08 b0 f8 c5 3f 48 5b f4 aa 44 9b dd 3f
       0.17165184406155568 0.4626018208959306
000740 68 3f b6 4b 99 9d 82 bf e7 a4 09 e4 81 6d d3 3f
       -0.009089658377689339 0.3035588004045863
000750 2d 95 db db 20 88 da 3f 2c df d1 b5 32 09 bb 3f
       0.41455861540301236 0.10560910166702503
000760 5a 74 b7 3a e4 1b bd 3f f0 8f 50 7a aa b1 bb 3f
       0.11370684083472452 0.10817971693228379
000770 3d 3c 6a 61 91 f9 d1 3f 38 e6 53 2a 1a 7b c0 bf
       0.28085741532499126 -0.1287567812612893
000780 d8 45 f6 80 1a 47 c8 3f 75 b2 f1 07 4b 55 a5 3f
       0.18966990754101576 0.041666359634153695
000790 0d 9c 9a e3 da dd d5 bf bd df 4f 6e f4 98 c6 3f
       -0.34166595675418493 0.1765428103096819
0007a0 8d 8d 52 5b ea b9 cd bf 64 88 b9 1a f5 ff b9 bf
       -0.23223618945221994 -0.10156185057124528
0007b0 d6 b0 fe ae ee 3b b7 3f b6 60 52 90 c3 f5 cf bf
       0.09075824520431594 -0.24968761965715708
0007c0 aa 77 bc 1f ed 23 b6 bf a4 b7 6d 73 8d 83 bb bf
       -0.08648569130715936 -0.1074760824974122
0007d0 70 51 ab 93 e3 9d b4 bf b9 a4 f6 a9 93 8e 82 bf
       -0.08053419451909405 -0.009061006187794584
0007e0 2f cf bf b4 4d 12 56 bf 22 8e 61 b2 64 76 6e 3f
       -0.001347137341324033 0.003718563722076033
0007f0 bf 6f 12 23 0f 20 b3 bf a0 b1 50 c3 43 8a 9c 3f
       -0.07470793348551207 0.027871187969297773
